{"format": "graph-model", "generatedBy": "2.3.0", "convertedBy": "TensorFlow.js Converter v2.2.0", "userDefinedMetadata": {"signature": {"outputs": {"Postprocessor/Slice": {"name": "Postprocessor/Slice"}, "Postprocessor/ExpandDims_1": {"name": "Postprocessor/ExpandDims_1"}}}}, "modelTopology": {"node": [{"name": "ConstantFolding/Postprocessor/Decode/truediv_4_recip", "op": "Const", "attr": {"value": {"tensor": {"dtype": "DT_FLOAT", "tensorShape": {}}}, "dtype": {"type": "DT_FLOAT"}}}, {"name": "ConstantFolding/Postprocessor/Decode/truediv_5_recip", "op": "Const", "attr": {"value": {"tensor": {"dtype": "DT_FLOAT", "tensorShape": {}}}, "dtype": {"type": "DT_FLOAT"}}}, {"name": "ConstantFolding/Postprocessor/Decode/truediv_recip", "op": "Const", "attr": {"dtype": {"type": "DT_FLOAT"}, "value": {"tensor": {"dtype": "DT_FLOAT", "tensorShape": {}}}}}, {"name": "ConstantFolding/Postprocessor/Decode/get_center_coordinates_and_sizes/truediv_recip", "op": "Const", "attr": {"value": {"tensor": {"dtype": "DT_FLOAT", "tensorShape": {}}}, "dtype": {"type": "DT_FLOAT"}}}, {"name": "ConstantFolding/Postprocessor/Decode/truediv_2_recip", "op": "Const", "attr": {"value": {"tensor": {"dtype": "DT_FLOAT", "tensorShape": {}}}, "dtype": {"type": "DT_FLOAT"}}}, {"name": "ConstantFolding/Postprocessor/Decode/truediv_6_recip", "op": "Const", "attr": {"value": {"tensor": {"dtype": "DT_FLOAT", "tensorShape": {}}}, "dtype": {"type": "DT_FLOAT"}}}, {"name": "ConstantFolding/Postprocessor/Decode/truediv_1_recip", "op": "Const", "attr": {"value": {"tensor": {"dtype": "DT_FLOAT", "tensorShape": {}}}, "dtype": {"type": "DT_FLOAT"}}}, {"name": "ConstantFolding/Postprocessor/Decode/get_center_coordinates_and_sizes/truediv_1_recip", "op": "Const", "attr": {"value": {"tensor": {"dtype": "DT_FLOAT", "tensorShape": {}}}, "dtype": {"type": "DT_FLOAT"}}}, {"name": "Postprocessor/Reshape_1/shape", "op": "Const", "attr": {"dtype": {"type": "DT_INT32"}, "value": {"tensor": {"dtype": "DT_INT32", "tensorShape": {"dim": [{"size": "2"}]}}}}}, {"name": "Postprocessor/Decode/transpose/perm", "op": "Const", "attr": {"dtype": {"type": "DT_INT32"}, "value": {"tensor": {"dtype": "DT_INT32", "tensorShape": {"dim": [{"size": "2"}]}}}}}, {"name": "ConstantFolding/Postprocessor/Decode/truediv_3_recip", "op": "Const", "attr": {"value": {"tensor": {"dtype": "DT_FLOAT", "tensorShape": {}}}, "dtype": {"type": "DT_FLOAT"}}}, {"name": "Postprocessor/ExpandDims", "op": "Const", "attr": {"value": {"tensor": {"dtype": "DT_FLOAT", "tensorShape": {"dim": [{"size": "1"}, {"size": "2034"}, {"size": "4"}]}}}, "dtype": {"type": "DT_FLOAT"}}}, {"name": "Postprocessor/Tile/multiples/1", "op": "Const", "attr": {"dtype": {"type": "DT_INT32"}, "value": {"tensor": {"dtype": "DT_INT32", "tensorShape": {}}}}}, {"name": "Postprocessor/Tile/multiples/2", "op": "Const", "attr": {"value": {"tensor": {"dtype": "DT_INT32", "tensorShape": {}}}, "dtype": {"type": "DT_INT32"}}}, {"name": "Postprocessor/Reshape/shape", "op": "Const", "attr": {"dtype": {"type": "DT_INT32"}, "value": {"tensor": {"dtype": "DT_INT32", "tensorShape": {"dim": [{"size": "2"}]}}}}}, {"name": "Postprocessor/Decode/get_center_coordinates_and_sizes/transpose/perm", "op": "Const", "attr": {"value": {"tensor": {"dtype": "DT_INT32", "tensorShape": {"dim": [{"size": "2"}]}}}, "dtype": {"type": "DT_INT32"}}}, {"name": "ConstantFolding/Postprocessor/Decode/truediv_7_recip", "op": "Const", "attr": {"dtype": {"type": "DT_FLOAT"}, "value": {"tensor": {"dtype": "DT_FLOAT", "tensorShape": {}}}}}, {"name": "Postprocessor/Decode/transpose_1/perm", "op": "Const", "attr": {"dtype": {"type": "DT_INT32"}, "value": {"tensor": {"dtype": "DT_INT32", "tensorShape": {"dim": [{"size": "2"}]}}}}}, {"name": "Postprocessor/strided_slice/stack", "op": "Const", "attr": {"dtype": {"type": "DT_INT32"}, "value": {"tensor": {"dtype": "DT_INT32", "tensorShape": {"dim": [{"size": "1"}]}}}}}, {"name": "Postprocessor/strided_slice/stack_1", "op": "Const", "attr": {"dtype": {"type": "DT_INT32"}, "value": {"tensor": {"dtype": "DT_INT32", "tensorShape": {"dim": [{"size": "1"}]}}}}}, {"name": "Postprocessor/strided_slice/stack_2", "op": "Const", "attr": {"dtype": {"type": "DT_INT32"}, "value": {"tensor": {"dtype": "DT_INT32", "tensorShape": {"dim": [{"size": "1"}]}}}}}, {"name": "BoxPredictor_0/BoxEncodingPredictor/weights", "op": "Const", "attr": {"dtype": {"type": "DT_FLOAT"}, "value": {"tensor": {"dtype": "DT_FLOAT", "tensorShape": {"dim": [{"size": "1"}, {"size": "1"}, {"size": "288"}, {"size": "12"}]}}}}}, {"name": "BoxPredictor_0/BoxEncodingPredictor/biases", "op": "Const", "attr": {"value": {"tensor": {"dtype": "DT_FLOAT", "tensorShape": {"dim": [{"size": "12"}]}}}, "dtype": {"type": "DT_FLOAT"}}}, {"name": "BoxPredictor_0/strided_slice/stack", "op": "Const", "attr": {"value": {"tensor": {"dtype": "DT_INT32", "tensorShape": {"dim": [{"size": "1"}]}}}, "dtype": {"type": "DT_INT32"}}}, {"name": "BoxPredictor_0/strided_slice/stack_1", "op": "Const", "attr": {"value": {"tensor": {"dtype": "DT_INT32", "tensorShape": {"dim": [{"size": "1"}]}}}, "dtype": {"type": "DT_INT32"}}}, {"name": "BoxPredictor_0/strided_slice/stack_2", "op": "Const", "attr": {"dtype": {"type": "DT_INT32"}, "value": {"tensor": {"dtype": "DT_INT32", "tensorShape": {"dim": [{"size": "1"}]}}}}}, {"name": "BoxPredictor_0/Reshape/shape/1", "op": "Const", "attr": {"dtype": {"type": "DT_INT32"}, "value": {"tensor": {"dtype": "DT_INT32", "tensorShape": {}}}}}, {"name": "BoxPredictor_0/Reshape/shape/2", "op": "Const", "attr": {"dtype": {"type": "DT_INT32"}, "value": {"tensor": {"dtype": "DT_INT32", "tensorShape": {}}}}}, {"name": "BoxPredictor_0/Reshape/shape/3", "op": "Const", "attr": {"dtype": {"type": "DT_INT32"}, "value": {"tensor": {"dtype": "DT_INT32", "tensorShape": {}}}}}, {"name": "BoxPredictor_1/BoxEncodingPredictor/weights", "op": "Const", "attr": {"value": {"tensor": {"dtype": "DT_FLOAT", "tensorShape": {"dim": [{"size": "1"}, {"size": "1"}, {"size": "288"}, {"size": "24"}]}}}, "dtype": {"type": "DT_FLOAT"}}}, {"name": "BoxPredictor_1/BoxEncodingPredictor/biases", "op": "Const", "attr": {"value": {"tensor": {"dtype": "DT_FLOAT", "tensorShape": {"dim": [{"size": "24"}]}}}, "dtype": {"type": "DT_FLOAT"}}}, {"name": "BoxPredictor_1/strided_slice/stack", "op": "Const", "attr": {"dtype": {"type": "DT_INT32"}, "value": {"tensor": {"dtype": "DT_INT32", "tensorShape": {"dim": [{"size": "1"}]}}}}}, {"name": "BoxPredictor_1/strided_slice/stack_1", "op": "Const", "attr": {"dtype": {"type": "DT_INT32"}, "value": {"tensor": {"dtype": "DT_INT32", "tensorShape": {"dim": [{"size": "1"}]}}}}}, {"name": "BoxPredictor_1/strided_slice/stack_2", "op": "Const", "attr": {"dtype": {"type": "DT_INT32"}, "value": {"tensor": {"dtype": "DT_INT32", "tensorShape": {"dim": [{"size": "1"}]}}}}}, {"name": "BoxPredictor_1/Reshape/shape/1", "op": "Const", "attr": {"dtype": {"type": "DT_INT32"}, "value": {"tensor": {"dtype": "DT_INT32", "tensorShape": {}}}}}, {"name": "BoxPredictor_1/Reshape/shape/2", "op": "Const", "attr": {"dtype": {"type": "DT_INT32"}, "value": {"tensor": {"dtype": "DT_INT32", "tensorShape": {}}}}}, {"name": "BoxPredictor_1/Reshape/shape/3", "op": "Const", "attr": {"value": {"tensor": {"dtype": "DT_INT32", "tensorShape": {}}}, "dtype": {"type": "DT_INT32"}}}, {"name": "BoxPredictor_2/BoxEncodingPredictor/weights", "op": "Const", "attr": {"value": {"tensor": {"dtype": "DT_FLOAT", "tensorShape": {"dim": [{"size": "1"}, {"size": "1"}, {"size": "512"}, {"size": "24"}]}}}, "dtype": {"type": "DT_FLOAT"}}}, {"name": "BoxPredictor_2/BoxEncodingPredictor/biases", "op": "Const", "attr": {"value": {"tensor": {"dtype": "DT_FLOAT", "tensorShape": {"dim": [{"size": "24"}]}}}, "dtype": {"type": "DT_FLOAT"}}}, {"name": "BoxPredictor_2/strided_slice/stack", "op": "Const", "attr": {"dtype": {"type": "DT_INT32"}, "value": {"tensor": {"dtype": "DT_INT32", "tensorShape": {"dim": [{"size": "1"}]}}}}}, {"name": "BoxPredictor_2/strided_slice/stack_1", "op": "Const", "attr": {"value": {"tensor": {"dtype": "DT_INT32", "tensorShape": {"dim": [{"size": "1"}]}}}, "dtype": {"type": "DT_INT32"}}}, {"name": "BoxPredictor_2/strided_slice/stack_2", "op": "Const", "attr": {"value": {"tensor": {"dtype": "DT_INT32", "tensorShape": {"dim": [{"size": "1"}]}}}, "dtype": {"type": "DT_INT32"}}}, {"name": "BoxPredictor_2/Reshape/shape/1", "op": "Const", "attr": {"dtype": {"type": "DT_INT32"}, "value": {"tensor": {"dtype": "DT_INT32", "tensorShape": {}}}}}, {"name": "BoxPredictor_2/Reshape/shape/2", "op": "Const", "attr": {"value": {"tensor": {"dtype": "DT_INT32", "tensorShape": {}}}, "dtype": {"type": "DT_INT32"}}}, {"name": "BoxPredictor_2/Reshape/shape/3", "op": "Const", "attr": {"dtype": {"type": "DT_INT32"}, "value": {"tensor": {"dtype": "DT_INT32", "tensorShape": {}}}}}, {"name": "BoxPredictor_3/BoxEncodingPredictor/weights", "op": "Const", "attr": {"dtype": {"type": "DT_FLOAT"}, "value": {"tensor": {"dtype": "DT_FLOAT", "tensorShape": {"dim": [{"size": "1"}, {"size": "1"}, {"size": "256"}, {"size": "24"}]}}}}}, {"name": "BoxPredictor_3/BoxEncodingPredictor/biases", "op": "Const", "attr": {"dtype": {"type": "DT_FLOAT"}, "value": {"tensor": {"dtype": "DT_FLOAT", "tensorShape": {"dim": [{"size": "24"}]}}}}}, {"name": "BoxPredictor_3/strided_slice/stack", "op": "Const", "attr": {"value": {"tensor": {"dtype": "DT_INT32", "tensorShape": {"dim": [{"size": "1"}]}}}, "dtype": {"type": "DT_INT32"}}}, {"name": "BoxPredictor_3/strided_slice/stack_1", "op": "Const", "attr": {"dtype": {"type": "DT_INT32"}, "value": {"tensor": {"dtype": "DT_INT32", "tensorShape": {"dim": [{"size": "1"}]}}}}}, {"name": "BoxPredictor_3/strided_slice/stack_2", "op": "Const", "attr": {"value": {"tensor": {"dtype": "DT_INT32", "tensorShape": {"dim": [{"size": "1"}]}}}, "dtype": {"type": "DT_INT32"}}}, {"name": "BoxPredictor_3/Reshape/shape/1", "op": "Const", "attr": {"value": {"tensor": {"dtype": "DT_INT32", "tensorShape": {}}}, "dtype": {"type": "DT_INT32"}}}, {"name": "BoxPredictor_3/Reshape/shape/2", "op": "Const", "attr": {"dtype": {"type": "DT_INT32"}, "value": {"tensor": {"dtype": "DT_INT32", "tensorShape": {}}}}}, {"name": "BoxPredictor_3/Reshape/shape/3", "op": "Const", "attr": {"value": {"tensor": {"dtype": "DT_INT32", "tensorShape": {}}}, "dtype": {"type": "DT_INT32"}}}, {"name": "BoxPredictor_4/BoxEncodingPredictor/weights", "op": "Const", "attr": {"value": {"tensor": {"dtype": "DT_FLOAT", "tensorShape": {"dim": [{"size": "1"}, {"size": "1"}, {"size": "256"}, {"size": "24"}]}}}, "dtype": {"type": "DT_FLOAT"}}}, {"name": "BoxPredictor_4/BoxEncodingPredictor/biases", "op": "Const", "attr": {"value": {"tensor": {"dtype": "DT_FLOAT", "tensorShape": {"dim": [{"size": "24"}]}}}, "dtype": {"type": "DT_FLOAT"}}}, {"name": "BoxPredictor_4/strided_slice/stack", "op": "Const", "attr": {"dtype": {"type": "DT_INT32"}, "value": {"tensor": {"dtype": "DT_INT32", "tensorShape": {"dim": [{"size": "1"}]}}}}}, {"name": "BoxPredictor_4/strided_slice/stack_1", "op": "Const", "attr": {"value": {"tensor": {"dtype": "DT_INT32", "tensorShape": {"dim": [{"size": "1"}]}}}, "dtype": {"type": "DT_INT32"}}}, {"name": "BoxPredictor_4/strided_slice/stack_2", "op": "Const", "attr": {"value": {"tensor": {"dtype": "DT_INT32", "tensorShape": {"dim": [{"size": "1"}]}}}, "dtype": {"type": "DT_INT32"}}}, {"name": "BoxPredictor_4/Reshape/shape/1", "op": "Const", "attr": {"dtype": {"type": "DT_INT32"}, "value": {"tensor": {"dtype": "DT_INT32", "tensorShape": {}}}}}, {"name": "BoxPredictor_4/Reshape/shape/2", "op": "Const", "attr": {"dtype": {"type": "DT_INT32"}, "value": {"tensor": {"dtype": "DT_INT32", "tensorShape": {}}}}}, {"name": "BoxPredictor_4/Reshape/shape/3", "op": "Const", "attr": {"dtype": {"type": "DT_INT32"}, "value": {"tensor": {"dtype": "DT_INT32", "tensorShape": {}}}}}, {"name": "BoxPredictor_5/BoxEncodingPredictor/weights", "op": "Const", "attr": {"dtype": {"type": "DT_FLOAT"}, "value": {"tensor": {"dtype": "DT_FLOAT", "tensorShape": {"dim": [{"size": "1"}, {"size": "1"}, {"size": "128"}, {"size": "24"}]}}}}}, {"name": "BoxPredictor_5/BoxEncodingPredictor/biases", "op": "Const", "attr": {"value": {"tensor": {"dtype": "DT_FLOAT", "tensorShape": {"dim": [{"size": "24"}]}}}, "dtype": {"type": "DT_FLOAT"}}}, {"name": "BoxPredictor_5/strided_slice/stack", "op": "Const", "attr": {"value": {"tensor": {"dtype": "DT_INT32", "tensorShape": {"dim": [{"size": "1"}]}}}, "dtype": {"type": "DT_INT32"}}}, {"name": "BoxPredictor_5/strided_slice/stack_1", "op": "Const", "attr": {"value": {"tensor": {"dtype": "DT_INT32", "tensorShape": {"dim": [{"size": "1"}]}}}, "dtype": {"type": "DT_INT32"}}}, {"name": "BoxPredictor_5/strided_slice/stack_2", "op": "Const", "attr": {"value": {"tensor": {"dtype": "DT_INT32", "tensorShape": {"dim": [{"size": "1"}]}}}, "dtype": {"type": "DT_INT32"}}}, {"name": "BoxPredictor_5/Reshape/shape/1", "op": "Const", "attr": {"value": {"tensor": {"dtype": "DT_INT32", "tensorShape": {}}}, "dtype": {"type": "DT_INT32"}}}, {"name": "BoxPredictor_5/Reshape/shape/2", "op": "Const", "attr": {"value": {"tensor": {"dtype": "DT_INT32", "tensorShape": {}}}, "dtype": {"type": "DT_INT32"}}}, {"name": "BoxPredictor_5/Reshape/shape/3", "op": "Const", "attr": {"value": {"tensor": {"dtype": "DT_INT32", "tensorShape": {}}}, "dtype": {"type": "DT_INT32"}}}, {"name": "concat/axis", "op": "Const", "attr": {"dtype": {"type": "DT_INT32"}, "value": {"tensor": {"dtype": "DT_INT32", "tensorShape": {}}}}}, {"name": "Postprocessor/strided_slice_1/stack", "op": "Const", "attr": {"value": {"tensor": {"dtype": "DT_INT32", "tensorShape": {"dim": [{"size": "1"}]}}}, "dtype": {"type": "DT_INT32"}}}, {"name": "Postprocessor/strided_slice_1/stack_1", "op": "Const", "attr": {"dtype": {"type": "DT_INT32"}, "value": {"tensor": {"dtype": "DT_INT32", "tensorShape": {"dim": [{"size": "1"}]}}}}}, {"name": "Postprocessor/strided_slice_1/stack_2", "op": "Const", "attr": {"value": {"tensor": {"dtype": "DT_INT32", "tensorShape": {"dim": [{"size": "1"}]}}}, "dtype": {"type": "DT_INT32"}}}, {"name": "Postprocessor/stack/2", "op": "Const", "attr": {"value": {"tensor": {"dtype": "DT_INT32", "tensorShape": {}}}, "dtype": {"type": "DT_INT32"}}}, {"name": "Postprocessor/ExpandDims_1/dim", "op": "Const", "attr": {"dtype": {"type": "DT_INT32"}, "value": {"tensor": {"dtype": "DT_INT32", "tensorShape": {}}}}}, {"name": "BoxPredictor_0/ClassPredictor/weights", "op": "Const", "attr": {"value": {"tensor": {"dtype": "DT_FLOAT", "tensorShape": {"dim": [{"size": "1"}, {"size": "1"}, {"size": "288"}, {"size": "6"}]}}}, "dtype": {"type": "DT_FLOAT"}}}, {"name": "BoxPredictor_0/ClassPredictor/biases", "op": "Const", "attr": {"value": {"tensor": {"dtype": "DT_FLOAT", "tensorShape": {"dim": [{"size": "6"}]}}}, "dtype": {"type": "DT_FLOAT"}}}, {"name": "BoxPredictor_0/strided_slice_1/stack", "op": "Const", "attr": {"value": {"tensor": {"dtype": "DT_INT32", "tensorShape": {"dim": [{"size": "1"}]}}}, "dtype": {"type": "DT_INT32"}}}, {"name": "BoxPredictor_0/strided_slice_1/stack_1", "op": "Const", "attr": {"dtype": {"type": "DT_INT32"}, "value": {"tensor": {"dtype": "DT_INT32", "tensorShape": {"dim": [{"size": "1"}]}}}}}, {"name": "BoxPredictor_0/strided_slice_1/stack_2", "op": "Const", "attr": {"dtype": {"type": "DT_INT32"}, "value": {"tensor": {"dtype": "DT_INT32", "tensorShape": {"dim": [{"size": "1"}]}}}}}, {"name": "BoxPredictor_0/Reshape_1/shape/1", "op": "Const", "attr": {"dtype": {"type": "DT_INT32"}, "value": {"tensor": {"dtype": "DT_INT32", "tensorShape": {}}}}}, {"name": "BoxPredictor_0/Reshape_1/shape/2", "op": "Const", "attr": {"value": {"tensor": {"dtype": "DT_INT32", "tensorShape": {}}}, "dtype": {"type": "DT_INT32"}}}, {"name": "BoxPredictor_1/ClassPredictor/weights", "op": "Const", "attr": {"dtype": {"type": "DT_FLOAT"}, "value": {"tensor": {"dtype": "DT_FLOAT", "tensorShape": {"dim": [{"size": "1"}, {"size": "1"}, {"size": "288"}, {"size": "12"}]}}}}}, {"name": "BoxPredictor_1/ClassPredictor/biases", "op": "Const", "attr": {"dtype": {"type": "DT_FLOAT"}, "value": {"tensor": {"dtype": "DT_FLOAT", "tensorShape": {"dim": [{"size": "12"}]}}}}}, {"name": "BoxPredictor_1/strided_slice_1/stack", "op": "Const", "attr": {"value": {"tensor": {"dtype": "DT_INT32", "tensorShape": {"dim": [{"size": "1"}]}}}, "dtype": {"type": "DT_INT32"}}}, {"name": "BoxPredictor_1/strided_slice_1/stack_1", "op": "Const", "attr": {"value": {"tensor": {"dtype": "DT_INT32", "tensorShape": {"dim": [{"size": "1"}]}}}, "dtype": {"type": "DT_INT32"}}}, {"name": "BoxPredictor_1/strided_slice_1/stack_2", "op": "Const", "attr": {"dtype": {"type": "DT_INT32"}, "value": {"tensor": {"dtype": "DT_INT32", "tensorShape": {"dim": [{"size": "1"}]}}}}}, {"name": "BoxPredictor_1/Reshape_1/shape/1", "op": "Const", "attr": {"value": {"tensor": {"dtype": "DT_INT32", "tensorShape": {}}}, "dtype": {"type": "DT_INT32"}}}, {"name": "BoxPredictor_1/Reshape_1/shape/2", "op": "Const", "attr": {"value": {"tensor": {"dtype": "DT_INT32", "tensorShape": {}}}, "dtype": {"type": "DT_INT32"}}}, {"name": "BoxPredictor_2/ClassPredictor/weights", "op": "Const", "attr": {"dtype": {"type": "DT_FLOAT"}, "value": {"tensor": {"dtype": "DT_FLOAT", "tensorShape": {"dim": [{"size": "1"}, {"size": "1"}, {"size": "512"}, {"size": "12"}]}}}}}, {"name": "BoxPredictor_2/ClassPredictor/biases", "op": "Const", "attr": {"dtype": {"type": "DT_FLOAT"}, "value": {"tensor": {"dtype": "DT_FLOAT", "tensorShape": {"dim": [{"size": "12"}]}}}}}, {"name": "BoxPredictor_2/strided_slice_1/stack", "op": "Const", "attr": {"value": {"tensor": {"dtype": "DT_INT32", "tensorShape": {"dim": [{"size": "1"}]}}}, "dtype": {"type": "DT_INT32"}}}, {"name": "BoxPredictor_2/strided_slice_1/stack_1", "op": "Const", "attr": {"value": {"tensor": {"dtype": "DT_INT32", "tensorShape": {"dim": [{"size": "1"}]}}}, "dtype": {"type": "DT_INT32"}}}, {"name": "BoxPredictor_2/strided_slice_1/stack_2", "op": "Const", "attr": {"value": {"tensor": {"dtype": "DT_INT32", "tensorShape": {"dim": [{"size": "1"}]}}}, "dtype": {"type": "DT_INT32"}}}, {"name": "BoxPredictor_2/Reshape_1/shape/1", "op": "Const", "attr": {"value": {"tensor": {"dtype": "DT_INT32", "tensorShape": {}}}, "dtype": {"type": "DT_INT32"}}}, {"name": "BoxPredictor_2/Reshape_1/shape/2", "op": "Const", "attr": {"dtype": {"type": "DT_INT32"}, "value": {"tensor": {"dtype": "DT_INT32", "tensorShape": {}}}}}, {"name": "BoxPredictor_3/ClassPredictor/weights", "op": "Const", "attr": {"value": {"tensor": {"dtype": "DT_FLOAT", "tensorShape": {"dim": [{"size": "1"}, {"size": "1"}, {"size": "256"}, {"size": "12"}]}}}, "dtype": {"type": "DT_FLOAT"}}}, {"name": "BoxPredictor_3/ClassPredictor/biases", "op": "Const", "attr": {"value": {"tensor": {"dtype": "DT_FLOAT", "tensorShape": {"dim": [{"size": "12"}]}}}, "dtype": {"type": "DT_FLOAT"}}}, {"name": "BoxPredictor_3/strided_slice_1/stack", "op": "Const", "attr": {"dtype": {"type": "DT_INT32"}, "value": {"tensor": {"dtype": "DT_INT32", "tensorShape": {"dim": [{"size": "1"}]}}}}}, {"name": "BoxPredictor_3/strided_slice_1/stack_1", "op": "Const", "attr": {"value": {"tensor": {"dtype": "DT_INT32", "tensorShape": {"dim": [{"size": "1"}]}}}, "dtype": {"type": "DT_INT32"}}}, {"name": "BoxPredictor_3/strided_slice_1/stack_2", "op": "Const", "attr": {"value": {"tensor": {"dtype": "DT_INT32", "tensorShape": {"dim": [{"size": "1"}]}}}, "dtype": {"type": "DT_INT32"}}}, {"name": "BoxPredictor_3/Reshape_1/shape/1", "op": "Const", "attr": {"dtype": {"type": "DT_INT32"}, "value": {"tensor": {"dtype": "DT_INT32", "tensorShape": {}}}}}, {"name": "BoxPredictor_3/Reshape_1/shape/2", "op": "Const", "attr": {"value": {"tensor": {"dtype": "DT_INT32", "tensorShape": {}}}, "dtype": {"type": "DT_INT32"}}}, {"name": "BoxPredictor_4/ClassPredictor/weights", "op": "Const", "attr": {"value": {"tensor": {"dtype": "DT_FLOAT", "tensorShape": {"dim": [{"size": "1"}, {"size": "1"}, {"size": "256"}, {"size": "12"}]}}}, "dtype": {"type": "DT_FLOAT"}}}, {"name": "BoxPredictor_4/ClassPredictor/biases", "op": "Const", "attr": {"dtype": {"type": "DT_FLOAT"}, "value": {"tensor": {"dtype": "DT_FLOAT", "tensorShape": {"dim": [{"size": "12"}]}}}}}, {"name": "BoxPredictor_4/strided_slice_1/stack", "op": "Const", "attr": {"value": {"tensor": {"dtype": "DT_INT32", "tensorShape": {"dim": [{"size": "1"}]}}}, "dtype": {"type": "DT_INT32"}}}, {"name": "BoxPredictor_4/strided_slice_1/stack_1", "op": "Const", "attr": {"value": {"tensor": {"dtype": "DT_INT32", "tensorShape": {"dim": [{"size": "1"}]}}}, "dtype": {"type": "DT_INT32"}}}, {"name": "BoxPredictor_4/strided_slice_1/stack_2", "op": "Const", "attr": {"dtype": {"type": "DT_INT32"}, "value": {"tensor": {"dtype": "DT_INT32", "tensorShape": {"dim": [{"size": "1"}]}}}}}, {"name": "BoxPredictor_4/Reshape_1/shape/1", "op": "Const", "attr": {"dtype": {"type": "DT_INT32"}, "value": {"tensor": {"dtype": "DT_INT32", "tensorShape": {}}}}}, {"name": "BoxPredictor_4/Reshape_1/shape/2", "op": "Const", "attr": {"value": {"tensor": {"dtype": "DT_INT32", "tensorShape": {}}}, "dtype": {"type": "DT_INT32"}}}, {"name": "BoxPredictor_5/ClassPredictor/weights", "op": "Const", "attr": {"value": {"tensor": {"dtype": "DT_FLOAT", "tensorShape": {"dim": [{"size": "1"}, {"size": "1"}, {"size": "128"}, {"size": "12"}]}}}, "dtype": {"type": "DT_FLOAT"}}}, {"name": "BoxPredictor_5/ClassPredictor/biases", "op": "Const", "attr": {"dtype": {"type": "DT_FLOAT"}, "value": {"tensor": {"dtype": "DT_FLOAT", "tensorShape": {"dim": [{"size": "12"}]}}}}}, {"name": "FeatureExtractor/MobilenetV3/Conv_1/hard_swish/mul_1/y", "op": "Const", "attr": {"dtype": {"type": "DT_FLOAT"}, "value": {"tensor": {"dtype": "DT_FLOAT", "tensorShape": {}}}}}, {"name": "FeatureExtractor/MobilenetV3/expanded_conv_10/squeeze_excite/Conv_1/mul/y", "op": "Const", "attr": {"value": {"tensor": {"dtype": "DT_FLOAT", "tensorShape": {}}}, "dtype": {"type": "DT_FLOAT"}}}, {"name": "FeatureExtractor/MobilenetV3/expanded_conv_10/squeeze_excite/Mean/reduction_indices", "op": "Const", "attr": {"value": {"tensor": {"dtype": "DT_INT32", "tensorShape": {"dim": [{"size": "2"}]}}}, "dtype": {"type": "DT_INT32"}}}, {"name": "FeatureExtractor/MobilenetV3/expanded_conv_10/squeeze_excite/Conv/weights", "op": "Const", "attr": {"dtype": {"type": "DT_FLOAT"}, "value": {"tensor": {"dtype": "DT_FLOAT", "tensorShape": {"dim": [{"size": "1"}, {"size": "1"}, {"size": "288"}, {"size": "72"}]}}}}}, {"name": "FeatureExtractor/MobilenetV3/expanded_conv_10/squeeze_excite/Conv/biases", "op": "Const", "attr": {"dtype": {"type": "DT_FLOAT"}, "value": {"tensor": {"dtype": "DT_FLOAT", "tensorShape": {"dim": [{"size": "72"}]}}}}}, {"name": "FeatureExtractor/MobilenetV3/expanded_conv_10/squeeze_excite/Conv_1/weights", "op": "Const", "attr": {"value": {"tensor": {"dtype": "DT_FLOAT", "tensorShape": {"dim": [{"size": "1"}, {"size": "1"}, {"size": "72"}, {"size": "288"}]}}}, "dtype": {"type": "DT_FLOAT"}}}, {"name": "FeatureExtractor/MobilenetV3/expanded_conv_10/squeeze_excite/Conv_1/biases", "op": "Const", "attr": {"value": {"tensor": {"dtype": "DT_FLOAT", "tensorShape": {"dim": [{"size": "288"}]}}}, "dtype": {"type": "DT_FLOAT"}}}, {"name": "FeatureExtractor/MobilenetV3/expanded_conv_10/squeeze_excite/Conv_1/add/y", "op": "Const", "attr": {"value": {"tensor": {"dtype": "DT_FLOAT", "tensorShape": {}}}, "dtype": {"type": "DT_FLOAT"}}}, {"name": "FeatureExtractor/MobilenetV3/expanded_conv_10/depthwise/hard_swish/mul_1/y", "op": "Const", "attr": {"dtype": {"type": "DT_FLOAT"}, "value": {"tensor": {"dtype": "DT_FLOAT", "tensorShape": {}}}}}, {"name": "FeatureExtractor/MobilenetV3/expanded_conv_10/expand/hard_swish/mul_1/y", "op": "Const", "attr": {"value": {"tensor": {"dtype": "DT_FLOAT", "tensorShape": {}}}, "dtype": {"type": "DT_FLOAT"}}}, {"name": "FeatureExtractor/MobilenetV3/expanded_conv_10/expand/hard_swish/add/y", "op": "Const", "attr": {"value": {"tensor": {"dtype": "DT_FLOAT", "tensorShape": {}}}, "dtype": {"type": "DT_FLOAT"}}}, {"name": "FeatureExtractor/MobilenetV3/expanded_conv_10/depthwise/hard_swish/add/y", "op": "Const", "attr": {"value": {"tensor": {"dtype": "DT_FLOAT", "tensorShape": {}}}, "dtype": {"type": "DT_FLOAT"}}}, {"name": "FeatureExtractor/MobilenetV3/expanded_conv_9/squeeze_excite/Conv_1/mul/y", "op": "Const", "attr": {"value": {"tensor": {"dtype": "DT_FLOAT", "tensorShape": {}}}, "dtype": {"type": "DT_FLOAT"}}}, {"name": "FeatureExtractor/MobilenetV3/expanded_conv_9/squeeze_excite/Mean/reduction_indices", "op": "Const", "attr": {"value": {"tensor": {"dtype": "DT_INT32", "tensorShape": {"dim": [{"size": "2"}]}}}, "dtype": {"type": "DT_INT32"}}}, {"name": "FeatureExtractor/MobilenetV3/expanded_conv_9/squeeze_excite/Conv/weights", "op": "Const", "attr": {"value": {"tensor": {"dtype": "DT_FLOAT", "tensorShape": {"dim": [{"size": "1"}, {"size": "1"}, {"size": "288"}, {"size": "72"}]}}}, "dtype": {"type": "DT_FLOAT"}}}, {"name": "FeatureExtractor/MobilenetV3/expanded_conv_9/squeeze_excite/Conv/biases", "op": "Const", "attr": {"dtype": {"type": "DT_FLOAT"}, "value": {"tensor": {"dtype": "DT_FLOAT", "tensorShape": {"dim": [{"size": "72"}]}}}}}, {"name": "FeatureExtractor/MobilenetV3/expanded_conv_9/squeeze_excite/Conv_1/weights", "op": "Const", "attr": {"value": {"tensor": {"dtype": "DT_FLOAT", "tensorShape": {"dim": [{"size": "1"}, {"size": "1"}, {"size": "72"}, {"size": "288"}]}}}, "dtype": {"type": "DT_FLOAT"}}}, {"name": "FeatureExtractor/MobilenetV3/expanded_conv_9/squeeze_excite/Conv_1/biases", "op": "Const", "attr": {"dtype": {"type": "DT_FLOAT"}, "value": {"tensor": {"dtype": "DT_FLOAT", "tensorShape": {"dim": [{"size": "288"}]}}}}}, {"name": "FeatureExtractor/MobilenetV3/expanded_conv_9/squeeze_excite/Conv_1/add/y", "op": "Const", "attr": {"value": {"tensor": {"dtype": "DT_FLOAT", "tensorShape": {}}}, "dtype": {"type": "DT_FLOAT"}}}, {"name": "FeatureExtractor/MobilenetV3/expanded_conv_9/depthwise/hard_swish/mul_1/y", "op": "Const", "attr": {"value": {"tensor": {"dtype": "DT_FLOAT", "tensorShape": {}}}, "dtype": {"type": "DT_FLOAT"}}}, {"name": "FeatureExtractor/MobilenetV3/expanded_conv_9/expand/hard_swish/mul_1/y", "op": "Const", "attr": {"dtype": {"type": "DT_FLOAT"}, "value": {"tensor": {"dtype": "DT_FLOAT", "tensorShape": {}}}}}, {"name": "FeatureExtractor/MobilenetV3/expanded_conv_9/expand/hard_swish/add/y", "op": "Const", "attr": {"value": {"tensor": {"dtype": "DT_FLOAT", "tensorShape": {}}}, "dtype": {"type": "DT_FLOAT"}}}, {"name": "FeatureExtractor/MobilenetV3/expanded_conv_9/depthwise/hard_swish/add/y", "op": "Const", "attr": {"dtype": {"type": "DT_FLOAT"}, "value": {"tensor": {"dtype": "DT_FLOAT", "tensorShape": {}}}}}, {"name": "FeatureExtractor/MobilenetV3/expanded_conv_8/squeeze_excite/Conv_1/mul/y", "op": "Const", "attr": {"value": {"tensor": {"dtype": "DT_FLOAT", "tensorShape": {}}}, "dtype": {"type": "DT_FLOAT"}}}, {"name": "FeatureExtractor/MobilenetV3/expanded_conv_8/squeeze_excite/Mean/reduction_indices", "op": "Const", "attr": {"value": {"tensor": {"dtype": "DT_INT32", "tensorShape": {"dim": [{"size": "2"}]}}}, "dtype": {"type": "DT_INT32"}}}, {"name": "FeatureExtractor/MobilenetV3/expanded_conv_8/squeeze_excite/Conv/weights", "op": "Const", "attr": {"value": {"tensor": {"dtype": "DT_FLOAT", "tensorShape": {"dim": [{"size": "1"}, {"size": "1"}, {"size": "288"}, {"size": "72"}]}}}, "dtype": {"type": "DT_FLOAT"}}}, {"name": "FeatureExtractor/MobilenetV3/expanded_conv_8/squeeze_excite/Conv/biases", "op": "Const", "attr": {"value": {"tensor": {"dtype": "DT_FLOAT", "tensorShape": {"dim": [{"size": "72"}]}}}, "dtype": {"type": "DT_FLOAT"}}}, {"name": "FeatureExtractor/MobilenetV3/expanded_conv_8/squeeze_excite/Conv_1/weights", "op": "Const", "attr": {"value": {"tensor": {"dtype": "DT_FLOAT", "tensorShape": {"dim": [{"size": "1"}, {"size": "1"}, {"size": "72"}, {"size": "288"}]}}}, "dtype": {"type": "DT_FLOAT"}}}, {"name": "FeatureExtractor/MobilenetV3/expanded_conv_8/squeeze_excite/Conv_1/biases", "op": "Const", "attr": {"value": {"tensor": {"dtype": "DT_FLOAT", "tensorShape": {"dim": [{"size": "288"}]}}}, "dtype": {"type": "DT_FLOAT"}}}, {"name": "FeatureExtractor/MobilenetV3/expanded_conv_8/squeeze_excite/Conv_1/add/y", "op": "Const", "attr": {"dtype": {"type": "DT_FLOAT"}, "value": {"tensor": {"dtype": "DT_FLOAT", "tensorShape": {}}}}}, {"name": "FeatureExtractor/MobilenetV3/expanded_conv_8/depthwise/hard_swish/mul_1/y", "op": "Const", "attr": {"dtype": {"type": "DT_FLOAT"}, "value": {"tensor": {"dtype": "DT_FLOAT", "tensorShape": {}}}}}, {"name": "FeatureExtractor/MobilenetV3/expanded_conv_8/expand/hard_swish/mul_1/y", "op": "Const", "attr": {"value": {"tensor": {"dtype": "DT_FLOAT", "tensorShape": {}}}, "dtype": {"type": "DT_FLOAT"}}}, {"name": "FeatureExtractor/MobilenetV3/expanded_conv_7/squeeze_excite/Conv_1/mul/y", "op": "Const", "attr": {"dtype": {"type": "DT_FLOAT"}, "value": {"tensor": {"dtype": "DT_FLOAT", "tensorShape": {}}}}}, {"name": "FeatureExtractor/MobilenetV3/expanded_conv_7/squeeze_excite/Mean/reduction_indices", "op": "Const", "attr": {"value": {"tensor": {"dtype": "DT_INT32", "tensorShape": {"dim": [{"size": "2"}]}}}, "dtype": {"type": "DT_INT32"}}}, {"name": "FeatureExtractor/MobilenetV3/expanded_conv_7/squeeze_excite/Conv/weights", "op": "Const", "attr": {"value": {"tensor": {"dtype": "DT_FLOAT", "tensorShape": {"dim": [{"size": "1"}, {"size": "1"}, {"size": "144"}, {"size": "40"}]}}}, "dtype": {"type": "DT_FLOAT"}}}, {"name": "FeatureExtractor/MobilenetV3/expanded_conv_7/squeeze_excite/Conv/biases", "op": "Const", "attr": {"value": {"tensor": {"dtype": "DT_FLOAT", "tensorShape": {"dim": [{"size": "40"}]}}}, "dtype": {"type": "DT_FLOAT"}}}, {"name": "FeatureExtractor/MobilenetV3/expanded_conv_7/squeeze_excite/Conv_1/weights", "op": "Const", "attr": {"value": {"tensor": {"dtype": "DT_FLOAT", "tensorShape": {"dim": [{"size": "1"}, {"size": "1"}, {"size": "40"}, {"size": "144"}]}}}, "dtype": {"type": "DT_FLOAT"}}}, {"name": "FeatureExtractor/MobilenetV3/expanded_conv_7/squeeze_excite/Conv_1/biases", "op": "Const", "attr": {"dtype": {"type": "DT_FLOAT"}, "value": {"tensor": {"dtype": "DT_FLOAT", "tensorShape": {"dim": [{"size": "144"}]}}}}}, {"name": "FeatureExtractor/MobilenetV3/expanded_conv_7/squeeze_excite/Conv_1/add/y", "op": "Const", "attr": {"dtype": {"type": "DT_FLOAT"}, "value": {"tensor": {"dtype": "DT_FLOAT", "tensorShape": {}}}}}, {"name": "FeatureExtractor/MobilenetV3/expanded_conv_7/depthwise/hard_swish/mul_1/y", "op": "Const", "attr": {"value": {"tensor": {"dtype": "DT_FLOAT", "tensorShape": {}}}, "dtype": {"type": "DT_FLOAT"}}}, {"name": "FeatureExtractor/MobilenetV3/expanded_conv_7/expand/hard_swish/mul_1/y", "op": "Const", "attr": {"value": {"tensor": {"dtype": "DT_FLOAT", "tensorShape": {}}}, "dtype": {"type": "DT_FLOAT"}}}, {"name": "FeatureExtractor/MobilenetV3/expanded_conv_7/expand/hard_swish/add/y", "op": "Const", "attr": {"dtype": {"type": "DT_FLOAT"}, "value": {"tensor": {"dtype": "DT_FLOAT", "tensorShape": {}}}}}, {"name": "FeatureExtractor/MobilenetV3/expanded_conv_7/depthwise/hard_swish/add/y", "op": "Const", "attr": {"dtype": {"type": "DT_FLOAT"}, "value": {"tensor": {"dtype": "DT_FLOAT", "tensorShape": {}}}}}, {"name": "FeatureExtractor/MobilenetV3/expanded_conv_6/squeeze_excite/Conv_1/mul/y", "op": "Const", "attr": {"value": {"tensor": {"dtype": "DT_FLOAT", "tensorShape": {}}}, "dtype": {"type": "DT_FLOAT"}}}, {"name": "FeatureExtractor/MobilenetV3/expanded_conv_6/squeeze_excite/Mean/reduction_indices", "op": "Const", "attr": {"dtype": {"type": "DT_INT32"}, "value": {"tensor": {"dtype": "DT_INT32", "tensorShape": {"dim": [{"size": "2"}]}}}}}, {"name": "FeatureExtractor/MobilenetV3/expanded_conv_6/squeeze_excite/Conv/weights", "op": "Const", "attr": {"value": {"tensor": {"dtype": "DT_FLOAT", "tensorShape": {"dim": [{"size": "1"}, {"size": "1"}, {"size": "120"}, {"size": "32"}]}}}, "dtype": {"type": "DT_FLOAT"}}}, {"name": "FeatureExtractor/MobilenetV3/expanded_conv_6/squeeze_excite/Conv/biases", "op": "Const", "attr": {"dtype": {"type": "DT_FLOAT"}, "value": {"tensor": {"dtype": "DT_FLOAT", "tensorShape": {"dim": [{"size": "32"}]}}}}}, {"name": "FeatureExtractor/MobilenetV3/expanded_conv_6/squeeze_excite/Conv_1/weights", "op": "Const", "attr": {"dtype": {"type": "DT_FLOAT"}, "value": {"tensor": {"dtype": "DT_FLOAT", "tensorShape": {"dim": [{"size": "1"}, {"size": "1"}, {"size": "32"}, {"size": "120"}]}}}}}, {"name": "FeatureExtractor/MobilenetV3/expanded_conv_6/squeeze_excite/Conv_1/biases", "op": "Const", "attr": {"value": {"tensor": {"dtype": "DT_FLOAT", "tensorShape": {"dim": [{"size": "120"}]}}}, "dtype": {"type": "DT_FLOAT"}}}, {"name": "FeatureExtractor/MobilenetV3/expanded_conv_6/squeeze_excite/Conv_1/add/y", "op": "Const", "attr": {"value": {"tensor": {"dtype": "DT_FLOAT", "tensorShape": {}}}, "dtype": {"type": "DT_FLOAT"}}}, {"name": "FeatureExtractor/MobilenetV3/expanded_conv_6/depthwise/hard_swish/mul_1/y", "op": "Const", "attr": {"value": {"tensor": {"dtype": "DT_FLOAT", "tensorShape": {}}}, "dtype": {"type": "DT_FLOAT"}}}, {"name": "FeatureExtractor/MobilenetV3/expanded_conv_6/expand/hard_swish/mul_1/y", "op": "Const", "attr": {"value": {"tensor": {"dtype": "DT_FLOAT", "tensorShape": {}}}, "dtype": {"type": "DT_FLOAT"}}}, {"name": "FeatureExtractor/MobilenetV3/expanded_conv_5/squeeze_excite/Conv_1/mul/y", "op": "Const", "attr": {"dtype": {"type": "DT_FLOAT"}, "value": {"tensor": {"dtype": "DT_FLOAT", "tensorShape": {}}}}}, {"name": "FeatureExtractor/MobilenetV3/expanded_conv_5/squeeze_excite/Mean/reduction_indices", "op": "Const", "attr": {"value": {"tensor": {"dtype": "DT_INT32", "tensorShape": {"dim": [{"size": "2"}]}}}, "dtype": {"type": "DT_INT32"}}}, {"name": "FeatureExtractor/MobilenetV3/expanded_conv_5/squeeze_excite/Conv/weights", "op": "Const", "attr": {"dtype": {"type": "DT_FLOAT"}, "value": {"tensor": {"dtype": "DT_FLOAT", "tensorShape": {"dim": [{"size": "1"}, {"size": "1"}, {"size": "240"}, {"size": "64"}]}}}}}, {"name": "FeatureExtractor/MobilenetV3/expanded_conv_5/squeeze_excite/Conv/biases", "op": "Const", "attr": {"dtype": {"type": "DT_FLOAT"}, "value": {"tensor": {"dtype": "DT_FLOAT", "tensorShape": {"dim": [{"size": "64"}]}}}}}, {"name": "FeatureExtractor/MobilenetV3/expanded_conv_5/squeeze_excite/Conv_1/weights", "op": "Const", "attr": {"value": {"tensor": {"dtype": "DT_FLOAT", "tensorShape": {"dim": [{"size": "1"}, {"size": "1"}, {"size": "64"}, {"size": "240"}]}}}, "dtype": {"type": "DT_FLOAT"}}}, {"name": "FeatureExtractor/MobilenetV3/expanded_conv_5/squeeze_excite/Conv_1/biases", "op": "Const", "attr": {"value": {"tensor": {"dtype": "DT_FLOAT", "tensorShape": {"dim": [{"size": "240"}]}}}, "dtype": {"type": "DT_FLOAT"}}}, {"name": "FeatureExtractor/MobilenetV3/expanded_conv_5/squeeze_excite/Conv_1/add/y", "op": "Const", "attr": {"dtype": {"type": "DT_FLOAT"}, "value": {"tensor": {"dtype": "DT_FLOAT", "tensorShape": {}}}}}, {"name": "FeatureExtractor/MobilenetV3/expanded_conv_5/depthwise/hard_swish/mul_1/y", "op": "Const", "attr": {"dtype": {"type": "DT_FLOAT"}, "value": {"tensor": {"dtype": "DT_FLOAT", "tensorShape": {}}}}}, {"name": "FeatureExtractor/MobilenetV3/expanded_conv_5/expand/hard_swish/mul_1/y", "op": "Const", "attr": {"dtype": {"type": "DT_FLOAT"}, "value": {"tensor": {"dtype": "DT_FLOAT", "tensorShape": {}}}}}, {"name": "FeatureExtractor/MobilenetV3/expanded_conv_5/expand/hard_swish/add/y", "op": "Const", "attr": {"value": {"tensor": {"dtype": "DT_FLOAT", "tensorShape": {}}}, "dtype": {"type": "DT_FLOAT"}}}, {"name": "FeatureExtractor/MobilenetV3/expanded_conv_5/depthwise/hard_swish/add/y", "op": "Const", "attr": {"dtype": {"type": "DT_FLOAT"}, "value": {"tensor": {"dtype": "DT_FLOAT", "tensorShape": {}}}}}, {"name": "FeatureExtractor/MobilenetV3/expanded_conv_4/squeeze_excite/Conv_1/mul/y", "op": "Const", "attr": {"value": {"tensor": {"dtype": "DT_FLOAT", "tensorShape": {}}}, "dtype": {"type": "DT_FLOAT"}}}, {"name": "FeatureExtractor/MobilenetV3/expanded_conv_4/squeeze_excite/Mean/reduction_indices", "op": "Const", "attr": {"value": {"tensor": {"dtype": "DT_INT32", "tensorShape": {"dim": [{"size": "2"}]}}}, "dtype": {"type": "DT_INT32"}}}, {"name": "FeatureExtractor/MobilenetV3/expanded_conv_4/squeeze_excite/Conv/weights", "op": "Const", "attr": {"dtype": {"type": "DT_FLOAT"}, "value": {"tensor": {"dtype": "DT_FLOAT", "tensorShape": {"dim": [{"size": "1"}, {"size": "1"}, {"size": "240"}, {"size": "64"}]}}}}}, {"name": "FeatureExtractor/MobilenetV3/expanded_conv_4/squeeze_excite/Conv/biases", "op": "Const", "attr": {"dtype": {"type": "DT_FLOAT"}, "value": {"tensor": {"dtype": "DT_FLOAT", "tensorShape": {"dim": [{"size": "64"}]}}}}}, {"name": "FeatureExtractor/MobilenetV3/expanded_conv_4/squeeze_excite/Conv_1/weights", "op": "Const", "attr": {"dtype": {"type": "DT_FLOAT"}, "value": {"tensor": {"dtype": "DT_FLOAT", "tensorShape": {"dim": [{"size": "1"}, {"size": "1"}, {"size": "64"}, {"size": "240"}]}}}}}, {"name": "FeatureExtractor/MobilenetV3/expanded_conv_4/squeeze_excite/Conv_1/biases", "op": "Const", "attr": {"value": {"tensor": {"dtype": "DT_FLOAT", "tensorShape": {"dim": [{"size": "240"}]}}}, "dtype": {"type": "DT_FLOAT"}}}, {"name": "FeatureExtractor/MobilenetV3/expanded_conv_4/squeeze_excite/Conv_1/add/y", "op": "Const", "attr": {"dtype": {"type": "DT_FLOAT"}, "value": {"tensor": {"dtype": "DT_FLOAT", "tensorShape": {}}}}}, {"name": "FeatureExtractor/MobilenetV3/expanded_conv_4/depthwise/hard_swish/mul_1/y", "op": "Const", "attr": {"dtype": {"type": "DT_FLOAT"}, "value": {"tensor": {"dtype": "DT_FLOAT", "tensorShape": {}}}}}, {"name": "FeatureExtractor/MobilenetV3/expanded_conv_4/expand/hard_swish/mul_1/y", "op": "Const", "attr": {"value": {"tensor": {"dtype": "DT_FLOAT", "tensorShape": {}}}, "dtype": {"type": "DT_FLOAT"}}}, {"name": "FeatureExtractor/MobilenetV3/expanded_conv_4/expand/hard_swish/add/y", "op": "Const", "attr": {"dtype": {"type": "DT_FLOAT"}, "value": {"tensor": {"dtype": "DT_FLOAT", "tensorShape": {}}}}}, {"name": "FeatureExtractor/MobilenetV3/expanded_conv_4/depthwise/hard_swish/add/y", "op": "Const", "attr": {"dtype": {"type": "DT_FLOAT"}, "value": {"tensor": {"dtype": "DT_FLOAT", "tensorShape": {}}}}}, {"name": "FeatureExtractor/MobilenetV3/expanded_conv_3/squeeze_excite/Conv_1/mul/y", "op": "Const", "attr": {"dtype": {"type": "DT_FLOAT"}, "value": {"tensor": {"dtype": "DT_FLOAT", "tensorShape": {}}}}}, {"name": "FeatureExtractor/MobilenetV3/expanded_conv_3/squeeze_excite/Mean/reduction_indices", "op": "Const", "attr": {"value": {"tensor": {"dtype": "DT_INT32", "tensorShape": {"dim": [{"size": "2"}]}}}, "dtype": {"type": "DT_INT32"}}}, {"name": "FeatureExtractor/MobilenetV3/expanded_conv_3/squeeze_excite/Conv/weights", "op": "Const", "attr": {"dtype": {"type": "DT_FLOAT"}, "value": {"tensor": {"dtype": "DT_FLOAT", "tensorShape": {"dim": [{"size": "1"}, {"size": "1"}, {"size": "96"}, {"size": "24"}]}}}}}, {"name": "FeatureExtractor/MobilenetV3/expanded_conv_3/squeeze_excite/Conv/biases", "op": "Const", "attr": {"value": {"tensor": {"dtype": "DT_FLOAT", "tensorShape": {"dim": [{"size": "24"}]}}}, "dtype": {"type": "DT_FLOAT"}}}, {"name": "FeatureExtractor/MobilenetV3/expanded_conv_3/squeeze_excite/Conv_1/weights", "op": "Const", "attr": {"value": {"tensor": {"dtype": "DT_FLOAT", "tensorShape": {"dim": [{"size": "1"}, {"size": "1"}, {"size": "24"}, {"size": "96"}]}}}, "dtype": {"type": "DT_FLOAT"}}}, {"name": "FeatureExtractor/MobilenetV3/expanded_conv_3/squeeze_excite/Conv_1/biases", "op": "Const", "attr": {"dtype": {"type": "DT_FLOAT"}, "value": {"tensor": {"dtype": "DT_FLOAT", "tensorShape": {"dim": [{"size": "96"}]}}}}}, {"name": "FeatureExtractor/MobilenetV3/expanded_conv_3/squeeze_excite/Conv_1/add/y", "op": "Const", "attr": {"value": {"tensor": {"dtype": "DT_FLOAT", "tensorShape": {}}}, "dtype": {"type": "DT_FLOAT"}}}, {"name": "FeatureExtractor/MobilenetV3/expanded_conv_3/depthwise/hard_swish/mul_1/y", "op": "Const", "attr": {"value": {"tensor": {"dtype": "DT_FLOAT", "tensorShape": {}}}, "dtype": {"type": "DT_FLOAT"}}}, {"name": "FeatureExtractor/MobilenetV3/expanded_conv_3/expand/hard_swish/mul_1/y", "op": "Const", "attr": {"value": {"tensor": {"dtype": "DT_FLOAT", "tensorShape": {}}}, "dtype": {"type": "DT_FLOAT"}}}, {"name": "FeatureExtractor/MobilenetV3/expanded_conv/squeeze_excite/Conv_1/mul/y", "op": "Const", "attr": {"value": {"tensor": {"dtype": "DT_FLOAT", "tensorShape": {}}}, "dtype": {"type": "DT_FLOAT"}}}, {"name": "FeatureExtractor/MobilenetV3/expanded_conv/squeeze_excite/Mean/reduction_indices", "op": "Const", "attr": {"value": {"tensor": {"dtype": "DT_INT32", "tensorShape": {"dim": [{"size": "2"}]}}}, "dtype": {"type": "DT_INT32"}}}, {"name": "FeatureExtractor/MobilenetV3/expanded_conv/squeeze_excite/Conv/weights", "op": "Const", "attr": {"value": {"tensor": {"dtype": "DT_FLOAT", "tensorShape": {"dim": [{"size": "1"}, {"size": "1"}, {"size": "16"}, {"size": "8"}]}}}, "dtype": {"type": "DT_FLOAT"}}}, {"name": "FeatureExtractor/MobilenetV3/expanded_conv/squeeze_excite/Conv/biases", "op": "Const", "attr": {"value": {"tensor": {"dtype": "DT_FLOAT", "tensorShape": {"dim": [{"size": "8"}]}}}, "dtype": {"type": "DT_FLOAT"}}}, {"name": "FeatureExtractor/MobilenetV3/expanded_conv/squeeze_excite/Conv_1/weights", "op": "Const", "attr": {"dtype": {"type": "DT_FLOAT"}, "value": {"tensor": {"dtype": "DT_FLOAT", "tensorShape": {"dim": [{"size": "1"}, {"size": "1"}, {"size": "8"}, {"size": "16"}]}}}}}, {"name": "FeatureExtractor/MobilenetV3/expanded_conv/squeeze_excite/Conv_1/biases", "op": "Const", "attr": {"dtype": {"type": "DT_FLOAT"}, "value": {"tensor": {"dtype": "DT_FLOAT", "tensorShape": {"dim": [{"size": "16"}]}}}}}, {"name": "FeatureExtractor/MobilenetV3/expanded_conv/squeeze_excite/Conv_1/add/y", "op": "Const", "attr": {"dtype": {"type": "DT_FLOAT"}, "value": {"tensor": {"dtype": "DT_FLOAT", "tensorShape": {}}}}}, {"name": "FeatureExtractor/MobilenetV3/Conv/hard_swish/mul_1/y", "op": "Const", "attr": {"dtype": {"type": "DT_FLOAT"}, "value": {"tensor": {"dtype": "DT_FLOAT", "tensorShape": {}}}}}, {"name": "Preprocessor/map/TensorArrayStack/range/start", "op": "Const", "attr": {"dtype": {"type": "DT_INT32"}, "value": {"tensor": {"dtype": "DT_INT32", "tensorShape": {}}}}}, {"name": "Preprocessor/map/TensorArrayStack/range/delta", "op": "Const", "attr": {"dtype": {"type": "DT_INT32"}, "value": {"tensor": {"dtype": "DT_INT32", "tensorShape": {}}}}}, {"name": "Preprocessor/map/TensorArrayUnstack/range/start", "op": "Const", "attr": {"dtype": {"type": "DT_INT32"}, "value": {"tensor": {"dtype": "DT_INT32", "tensorShape": {}}}}}, {"name": "Preprocessor/map/TensorArrayUnstack/strided_slice/stack", "op": "Const", "attr": {"value": {"tensor": {"dtype": "DT_INT32", "tensorShape": {"dim": [{"size": "1"}]}}}, "dtype": {"type": "DT_INT32"}}}, {"name": "Preprocessor/map/TensorArrayUnstack/strided_slice/stack_1", "op": "Const", "attr": {"value": {"tensor": {"dtype": "DT_INT32", "tensorShape": {"dim": [{"size": "1"}]}}}, "dtype": {"type": "DT_INT32"}}}, {"name": "Preprocessor/map/TensorArrayUnstack/strided_slice/stack_2", "op": "Const", "attr": {"dtype": {"type": "DT_INT32"}, "value": {"tensor": {"dtype": "DT_INT32", "tensorShape": {"dim": [{"size": "1"}]}}}}}, {"name": "Preprocessor/map/TensorArrayUnstack/range/delta", "op": "Const", "attr": {"dtype": {"type": "DT_INT32"}, "value": {"tensor": {"dtype": "DT_INT32", "tensorShape": {}}}}}, {"name": "Preprocessor/map/Const", "op": "Const", "attr": {"dtype": {"type": "DT_INT32"}, "value": {"tensor": {"dtype": "DT_INT32", "tensorShape": {}}}}}, {"name": "Preprocessor/map/while/iteration_counter", "op": "Const", "attr": {"value": {"tensor": {"dtype": "DT_INT32", "tensorShape": {}}}, "dtype": {"type": "DT_INT32"}}}, {"name": "Preprocessor/mul/x", "op": "Const", "attr": {"dtype": {"type": "DT_FLOAT"}, "value": {"tensor": {"dtype": "DT_FLOAT", "tensorShape": {}}}}}, {"name": "Preprocessor/sub/y", "op": "Const", "attr": {"dtype": {"type": "DT_FLOAT"}, "value": {"tensor": {"dtype": "DT_FLOAT", "tensorShape": {}}}}}, {"name": "Preprocessor/map/strided_slice/stack", "op": "Const", "attr": {"dtype": {"type": "DT_INT32"}, "value": {"tensor": {"dtype": "DT_INT32", "tensorShape": {"dim": [{"size": "1"}]}}}}}, {"name": "Preprocessor/map/strided_slice/stack_1", "op": "Const", "attr": {"dtype": {"type": "DT_INT32"}, "value": {"tensor": {"dtype": "DT_INT32", "tensorShape": {"dim": [{"size": "1"}]}}}}}, {"name": "Preprocessor/map/strided_slice/stack_2", "op": "Const", "attr": {"dtype": {"type": "DT_INT32"}, "value": {"tensor": {"dtype": "DT_INT32", "tensorShape": {"dim": [{"size": "1"}]}}}}}, {"name": "FeatureExtractor/MobilenetV3/Conv/hard_swish/add/y", "op": "Const", "attr": {"dtype": {"type": "DT_FLOAT"}, "value": {"tensor": {"dtype": "DT_FLOAT", "tensorShape": {}}}}}, {"name": "FeatureExtractor/MobilenetV3/expanded_conv_3/expand/hard_swish/add/y", "op": "Const", "attr": {"value": {"tensor": {"dtype": "DT_FLOAT", "tensorShape": {}}}, "dtype": {"type": "DT_FLOAT"}}}, {"name": "FeatureExtractor/MobilenetV3/expanded_conv_3/depthwise/hard_swish/add/y", "op": "Const", "attr": {"dtype": {"type": "DT_FLOAT"}, "value": {"tensor": {"dtype": "DT_FLOAT", "tensorShape": {}}}}}, {"name": "FeatureExtractor/MobilenetV3/expanded_conv_6/expand/hard_swish/add/y", "op": "Const", "attr": {"value": {"tensor": {"dtype": "DT_FLOAT", "tensorShape": {}}}, "dtype": {"type": "DT_FLOAT"}}}, {"name": "FeatureExtractor/MobilenetV3/expanded_conv_6/depthwise/hard_swish/add/y", "op": "Const", "attr": {"dtype": {"type": "DT_FLOAT"}, "value": {"tensor": {"dtype": "DT_FLOAT", "tensorShape": {}}}}}, {"name": "FeatureExtractor/MobilenetV3/expanded_conv_8/expand/hard_swish/add/y", "op": "Const", "attr": {"dtype": {"type": "DT_FLOAT"}, "value": {"tensor": {"dtype": "DT_FLOAT", "tensorShape": {}}}}}, {"name": "FeatureExtractor/MobilenetV3/expanded_conv_8/depthwise/hard_swish/add/y", "op": "Const", "attr": {"value": {"tensor": {"dtype": "DT_FLOAT", "tensorShape": {}}}, "dtype": {"type": "DT_FLOAT"}}}, {"name": "FeatureExtractor/MobilenetV3/Conv_1/hard_swish/add/y", "op": "Const", "attr": {"value": {"tensor": {"dtype": "DT_FLOAT", "tensorShape": {}}}, "dtype": {"type": "DT_FLOAT"}}}, {"name": "BoxPredictor_5/strided_slice_1/stack", "op": "Const", "attr": {"value": {"tensor": {"dtype": "DT_INT32", "tensorShape": {"dim": [{"size": "1"}]}}}, "dtype": {"type": "DT_INT32"}}}, {"name": "BoxPredictor_5/strided_slice_1/stack_1", "op": "Const", "attr": {"dtype": {"type": "DT_INT32"}, "value": {"tensor": {"dtype": "DT_INT32", "tensorShape": {"dim": [{"size": "1"}]}}}}}, {"name": "BoxPredictor_5/strided_slice_1/stack_2", "op": "Const", "attr": {"value": {"tensor": {"dtype": "DT_INT32", "tensorShape": {"dim": [{"size": "1"}]}}}, "dtype": {"type": "DT_INT32"}}}, {"name": "BoxPredictor_5/Reshape_1/shape/1", "op": "Const", "attr": {"dtype": {"type": "DT_INT32"}, "value": {"tensor": {"dtype": "DT_INT32", "tensorShape": {}}}}}, {"name": "BoxPredictor_5/Reshape_1/shape/2", "op": "Const", "attr": {"value": {"tensor": {"dtype": "DT_INT32", "tensorShape": {}}}, "dtype": {"type": "DT_INT32"}}}, {"name": "concat_1/axis", "op": "Const", "attr": {"dtype": {"type": "DT_INT32"}, "value": {"tensor": {"dtype": "DT_INT32", "tensorShape": {}}}}}, {"name": "Postprocessor/Slice/begin", "op": "Const", "attr": {"dtype": {"type": "DT_INT32"}, "value": {"tensor": {"dtype": "DT_INT32", "tensorShape": {"dim": [{"size": "3"}]}}}}}, {"name": "Postprocessor/Slice/size", "op": "Const", "attr": {"dtype": {"type": "DT_INT32"}, "value": {"tensor": {"dtype": "DT_INT32", "tensorShape": {"dim": [{"size": "3"}]}}}}}, {"name": "image_tensor", "op": "Placeholder", "attr": {"dtype": {"type": "DT_UINT8"}, "shape": {"shape": {"dim": [{"size": "-1"}, {"size": "-1"}, {"size": "-1"}, {"size": "3"}]}}}}, {"name": "FeatureExtractor/MobilenetV3/Conv/Conv2D_weights", "op": "Const", "attr": {"value": {"tensor": {"dtype": "DT_FLOAT", "tensorShape": {"dim": [{"size": "3"}, {"size": "3"}, {"size": "3"}, {"size": "16"}]}}}, "dtype": {"type": "DT_FLOAT"}}}, {"name": "FeatureExtractor/MobilenetV3/Conv/Conv2D_bn_offset", "op": "Const", "attr": {"dtype": {"type": "DT_FLOAT"}, "value": {"tensor": {"dtype": "DT_FLOAT", "tensorShape": {"dim": [{"size": "16"}]}}}}}, {"name": "FeatureExtractor/MobilenetV3/expanded_conv/depthwise/depthwise_weights", "op": "Const", "attr": {"value": {"tensor": {"dtype": "DT_FLOAT", "tensorShape": {"dim": [{"size": "3"}, {"size": "3"}, {"size": "16"}, {"size": "1"}]}}}, "dtype": {"type": "DT_FLOAT"}}}, {"name": "FeatureExtractor/MobilenetV3/expanded_conv/depthwise/depthwise_bn_offset", "op": "Const", "attr": {"value": {"tensor": {"dtype": "DT_FLOAT", "tensorShape": {"dim": [{"size": "16"}]}}}, "dtype": {"type": "DT_FLOAT"}}}, {"name": "FeatureExtractor/MobilenetV3/layer_13_2_Conv2d_5_3x3_s2_128_depthwise/depthwise_weights", "op": "Const", "attr": {"dtype": {"type": "DT_FLOAT"}, "value": {"tensor": {"dtype": "DT_FLOAT", "tensorShape": {"dim": [{"size": "3"}, {"size": "3"}, {"size": "64"}, {"size": "1"}]}}}}}, {"name": "FeatureExtractor/MobilenetV3/layer_13_2_Conv2d_5_3x3_s2_128_depthwise/depthwise_bn_offset", "op": "Const", "attr": {"value": {"tensor": {"dtype": "DT_FLOAT", "tensorShape": {"dim": [{"size": "64"}]}}}, "dtype": {"type": "DT_FLOAT"}}}, {"name": "FeatureExtractor/MobilenetV3/expanded_conv/project/Conv2D_weights", "op": "Const", "attr": {"value": {"tensor": {"dtype": "DT_FLOAT", "tensorShape": {"dim": [{"size": "1"}, {"size": "1"}, {"size": "16"}, {"size": "16"}]}}}, "dtype": {"type": "DT_FLOAT"}}}, {"name": "FeatureExtractor/MobilenetV3/expanded_conv/project/Conv2D_bn_offset", "op": "Const", "attr": {"dtype": {"type": "DT_FLOAT"}, "value": {"tensor": {"dtype": "DT_FLOAT", "tensorShape": {"dim": [{"size": "16"}]}}}}}, {"name": "FeatureExtractor/MobilenetV3/expanded_conv_1/expand/Conv2D_weights", "op": "Const", "attr": {"dtype": {"type": "DT_FLOAT"}, "value": {"tensor": {"dtype": "DT_FLOAT", "tensorShape": {"dim": [{"size": "1"}, {"size": "1"}, {"size": "16"}, {"size": "72"}]}}}}}, {"name": "FeatureExtractor/MobilenetV3/expanded_conv_1/expand/Conv2D_bn_offset", "op": "Const", "attr": {"dtype": {"type": "DT_FLOAT"}, "value": {"tensor": {"dtype": "DT_FLOAT", "tensorShape": {"dim": [{"size": "72"}]}}}}}, {"name": "FeatureExtractor/MobilenetV3/layer_13_2_Conv2d_5_3x3_s2_128/Conv2D_weights", "op": "Const", "attr": {"dtype": {"type": "DT_FLOAT"}, "value": {"tensor": {"dtype": "DT_FLOAT", "tensorShape": {"dim": [{"size": "1"}, {"size": "1"}, {"size": "64"}, {"size": "128"}]}}}}}, {"name": "FeatureExtractor/MobilenetV3/expanded_conv_1/depthwise/depthwise_weights", "op": "Const", "attr": {"dtype": {"type": "DT_FLOAT"}, "value": {"tensor": {"dtype": "DT_FLOAT", "tensorShape": {"dim": [{"size": "3"}, {"size": "3"}, {"size": "72"}, {"size": "1"}]}}}}}, {"name": "FeatureExtractor/MobilenetV3/expanded_conv_1/depthwise/depthwise_bn_offset", "op": "Const", "attr": {"value": {"tensor": {"dtype": "DT_FLOAT", "tensorShape": {"dim": [{"size": "72"}]}}}, "dtype": {"type": "DT_FLOAT"}}}, {"name": "FeatureExtractor/MobilenetV3/expanded_conv_1/project/Conv2D_weights", "op": "Const", "attr": {"value": {"tensor": {"dtype": "DT_FLOAT", "tensorShape": {"dim": [{"size": "1"}, {"size": "1"}, {"size": "72"}, {"size": "24"}]}}}, "dtype": {"type": "DT_FLOAT"}}}, {"name": "FeatureExtractor/MobilenetV3/expanded_conv_1/project/Conv2D_bn_offset", "op": "Const", "attr": {"value": {"tensor": {"dtype": "DT_FLOAT", "tensorShape": {"dim": [{"size": "24"}]}}}, "dtype": {"type": "DT_FLOAT"}}}, {"name": "FeatureExtractor/MobilenetV3/expanded_conv_2/expand/Conv2D_weights", "op": "Const", "attr": {"dtype": {"type": "DT_FLOAT"}, "value": {"tensor": {"dtype": "DT_FLOAT", "tensorShape": {"dim": [{"size": "1"}, {"size": "1"}, {"size": "24"}, {"size": "88"}]}}}}}, {"name": "FeatureExtractor/MobilenetV3/layer_13_2_Conv2d_5_3x3_s2_128/Conv2D_bn_offset", "op": "Const", "attr": {"value": {"tensor": {"dtype": "DT_FLOAT", "tensorShape": {"dim": [{"size": "128"}]}}}, "dtype": {"type": "DT_FLOAT"}}}, {"name": "FeatureExtractor/MobilenetV3/expanded_conv_2/expand/Conv2D_bn_offset", "op": "Const", "attr": {"dtype": {"type": "DT_FLOAT"}, "value": {"tensor": {"dtype": "DT_FLOAT", "tensorShape": {"dim": [{"size": "88"}]}}}}}, {"name": "FeatureExtractor/MobilenetV3/expanded_conv_2/depthwise/depthwise_weights", "op": "Const", "attr": {"dtype": {"type": "DT_FLOAT"}, "value": {"tensor": {"dtype": "DT_FLOAT", "tensorShape": {"dim": [{"size": "3"}, {"size": "3"}, {"size": "88"}, {"size": "1"}]}}}}}, {"name": "FeatureExtractor/MobilenetV3/expanded_conv_2/depthwise/depthwise_bn_offset", "op": "Const", "attr": {"dtype": {"type": "DT_FLOAT"}, "value": {"tensor": {"dtype": "DT_FLOAT", "tensorShape": {"dim": [{"size": "88"}]}}}}}, {"name": "FeatureExtractor/MobilenetV3/expanded_conv_2/project/Conv2D_weights", "op": "Const", "attr": {"value": {"tensor": {"dtype": "DT_FLOAT", "tensorShape": {"dim": [{"size": "1"}, {"size": "1"}, {"size": "88"}, {"size": "24"}]}}}, "dtype": {"type": "DT_FLOAT"}}}, {"name": "FeatureExtractor/MobilenetV3/expanded_conv_2/project/Conv2D_bn_offset", "op": "Const", "attr": {"value": {"tensor": {"dtype": "DT_FLOAT", "tensorShape": {"dim": [{"size": "24"}]}}}, "dtype": {"type": "DT_FLOAT"}}}, {"name": "FeatureExtractor/MobilenetV3/expanded_conv_3/expand/Conv2D_weights", "op": "Const", "attr": {"dtype": {"type": "DT_FLOAT"}, "value": {"tensor": {"dtype": "DT_FLOAT", "tensorShape": {"dim": [{"size": "1"}, {"size": "1"}, {"size": "24"}, {"size": "96"}]}}}}}, {"name": "FeatureExtractor/MobilenetV3/expanded_conv_3/expand/Conv2D_bn_offset", "op": "Const", "attr": {"value": {"tensor": {"dtype": "DT_FLOAT", "tensorShape": {"dim": [{"size": "96"}]}}}, "dtype": {"type": "DT_FLOAT"}}}, {"name": "FeatureExtractor/MobilenetV3/expanded_conv_3/depthwise/depthwise_weights", "op": "Const", "attr": {"dtype": {"type": "DT_FLOAT"}, "value": {"tensor": {"dtype": "DT_FLOAT", "tensorShape": {"dim": [{"size": "5"}, {"size": "5"}, {"size": "96"}, {"size": "1"}]}}}}}, {"name": "FeatureExtractor/MobilenetV3/expanded_conv_3/depthwise/depthwise_bn_offset", "op": "Const", "attr": {"value": {"tensor": {"dtype": "DT_FLOAT", "tensorShape": {"dim": [{"size": "96"}]}}}, "dtype": {"type": "DT_FLOAT"}}}, {"name": "FeatureExtractor/MobilenetV3/expanded_conv_3/project/Conv2D_weights", "op": "Const", "attr": {"value": {"tensor": {"dtype": "DT_FLOAT", "tensorShape": {"dim": [{"size": "1"}, {"size": "1"}, {"size": "96"}, {"size": "40"}]}}}, "dtype": {"type": "DT_FLOAT"}}}, {"name": "FeatureExtractor/MobilenetV3/expanded_conv_3/project/Conv2D_bn_offset", "op": "Const", "attr": {"dtype": {"type": "DT_FLOAT"}, "value": {"tensor": {"dtype": "DT_FLOAT", "tensorShape": {"dim": [{"size": "40"}]}}}}}, {"name": "FeatureExtractor/MobilenetV3/expanded_conv_4/expand/Conv2D_weights", "op": "Const", "attr": {"dtype": {"type": "DT_FLOAT"}, "value": {"tensor": {"dtype": "DT_FLOAT", "tensorShape": {"dim": [{"size": "1"}, {"size": "1"}, {"size": "40"}, {"size": "240"}]}}}}}, {"name": "FeatureExtractor/MobilenetV3/expanded_conv_4/expand/Conv2D_bn_offset", "op": "Const", "attr": {"value": {"tensor": {"dtype": "DT_FLOAT", "tensorShape": {"dim": [{"size": "240"}]}}}, "dtype": {"type": "DT_FLOAT"}}}, {"name": "FeatureExtractor/MobilenetV3/expanded_conv_4/depthwise/depthwise_weights", "op": "Const", "attr": {"value": {"tensor": {"dtype": "DT_FLOAT", "tensorShape": {"dim": [{"size": "5"}, {"size": "5"}, {"size": "240"}, {"size": "1"}]}}}, "dtype": {"type": "DT_FLOAT"}}}, {"name": "FeatureExtractor/MobilenetV3/expanded_conv_4/depthwise/depthwise_bn_offset", "op": "Const", "attr": {"value": {"tensor": {"dtype": "DT_FLOAT", "tensorShape": {"dim": [{"size": "240"}]}}}, "dtype": {"type": "DT_FLOAT"}}}, {"name": "BoxPredictor_5/BoxEncodingPredictor_depthwise/depthwise_weights", "op": "Const", "attr": {"dtype": {"type": "DT_FLOAT"}, "value": {"tensor": {"dtype": "DT_FLOAT", "tensorShape": {"dim": [{"size": "3"}, {"size": "3"}, {"size": "128"}, {"size": "1"}]}}}}}, {"name": "BoxPredictor_5/BoxEncodingPredictor_depthwise/depthwise_bn_offset", "op": "Const", "attr": {"value": {"tensor": {"dtype": "DT_FLOAT", "tensorShape": {"dim": [{"size": "128"}]}}}, "dtype": {"type": "DT_FLOAT"}}}, {"name": "FeatureExtractor/MobilenetV3/expanded_conv_4/project/Conv2D_weights", "op": "Const", "attr": {"value": {"tensor": {"dtype": "DT_FLOAT", "tensorShape": {"dim": [{"size": "1"}, {"size": "1"}, {"size": "240"}, {"size": "40"}]}}}, "dtype": {"type": "DT_FLOAT"}}}, {"name": "FeatureExtractor/MobilenetV3/expanded_conv_4/project/Conv2D_bn_offset", "op": "Const", "attr": {"value": {"tensor": {"dtype": "DT_FLOAT", "tensorShape": {"dim": [{"size": "40"}]}}}, "dtype": {"type": "DT_FLOAT"}}}, {"name": "FeatureExtractor/MobilenetV3/expanded_conv_5/expand/Conv2D_weights", "op": "Const", "attr": {"dtype": {"type": "DT_FLOAT"}, "value": {"tensor": {"dtype": "DT_FLOAT", "tensorShape": {"dim": [{"size": "1"}, {"size": "1"}, {"size": "40"}, {"size": "240"}]}}}}}, {"name": "FeatureExtractor/MobilenetV3/expanded_conv_5/expand/Conv2D_bn_offset", "op": "Const", "attr": {"dtype": {"type": "DT_FLOAT"}, "value": {"tensor": {"dtype": "DT_FLOAT", "tensorShape": {"dim": [{"size": "240"}]}}}}}, {"name": "FeatureExtractor/MobilenetV3/expanded_conv_5/depthwise/depthwise_weights", "op": "Const", "attr": {"dtype": {"type": "DT_FLOAT"}, "value": {"tensor": {"dtype": "DT_FLOAT", "tensorShape": {"dim": [{"size": "5"}, {"size": "5"}, {"size": "240"}, {"size": "1"}]}}}}}, {"name": "FeatureExtractor/MobilenetV3/expanded_conv_5/depthwise/depthwise_bn_offset", "op": "Const", "attr": {"value": {"tensor": {"dtype": "DT_FLOAT", "tensorShape": {"dim": [{"size": "240"}]}}}, "dtype": {"type": "DT_FLOAT"}}}, {"name": "FeatureExtractor/MobilenetV3/expanded_conv_5/project/Conv2D_weights", "op": "Const", "attr": {"value": {"tensor": {"dtype": "DT_FLOAT", "tensorShape": {"dim": [{"size": "1"}, {"size": "1"}, {"size": "240"}, {"size": "40"}]}}}, "dtype": {"type": "DT_FLOAT"}}}, {"name": "FeatureExtractor/MobilenetV3/expanded_conv_5/project/Conv2D_bn_offset", "op": "Const", "attr": {"dtype": {"type": "DT_FLOAT"}, "value": {"tensor": {"dtype": "DT_FLOAT", "tensorShape": {"dim": [{"size": "40"}]}}}}}, {"name": "FeatureExtractor/MobilenetV3/expanded_conv_6/expand/Conv2D_weights", "op": "Const", "attr": {"dtype": {"type": "DT_FLOAT"}, "value": {"tensor": {"dtype": "DT_FLOAT", "tensorShape": {"dim": [{"size": "1"}, {"size": "1"}, {"size": "40"}, {"size": "120"}]}}}}}, {"name": "FeatureExtractor/MobilenetV3/expanded_conv_6/expand/Conv2D_bn_offset", "op": "Const", "attr": {"dtype": {"type": "DT_FLOAT"}, "value": {"tensor": {"dtype": "DT_FLOAT", "tensorShape": {"dim": [{"size": "120"}]}}}}}, {"name": "FeatureExtractor/MobilenetV3/expanded_conv_6/depthwise/depthwise_weights", "op": "Const", "attr": {"value": {"tensor": {"dtype": "DT_FLOAT", "tensorShape": {"dim": [{"size": "5"}, {"size": "5"}, {"size": "120"}, {"size": "1"}]}}}, "dtype": {"type": "DT_FLOAT"}}}, {"name": "FeatureExtractor/MobilenetV3/expanded_conv_6/depthwise/depthwise_bn_offset", "op": "Const", "attr": {"value": {"tensor": {"dtype": "DT_FLOAT", "tensorShape": {"dim": [{"size": "120"}]}}}, "dtype": {"type": "DT_FLOAT"}}}, {"name": "FeatureExtractor/MobilenetV3/expanded_conv_6/project/Conv2D_weights", "op": "Const", "attr": {"value": {"tensor": {"dtype": "DT_FLOAT", "tensorShape": {"dim": [{"size": "1"}, {"size": "1"}, {"size": "120"}, {"size": "48"}]}}}, "dtype": {"type": "DT_FLOAT"}}}, {"name": "FeatureExtractor/MobilenetV3/expanded_conv_6/project/Conv2D_bn_offset", "op": "Const", "attr": {"dtype": {"type": "DT_FLOAT"}, "value": {"tensor": {"dtype": "DT_FLOAT", "tensorShape": {"dim": [{"size": "48"}]}}}}}, {"name": "FeatureExtractor/MobilenetV3/expanded_conv_7/expand/Conv2D_weights", "op": "Const", "attr": {"dtype": {"type": "DT_FLOAT"}, "value": {"tensor": {"dtype": "DT_FLOAT", "tensorShape": {"dim": [{"size": "1"}, {"size": "1"}, {"size": "48"}, {"size": "144"}]}}}}}, {"name": "FeatureExtractor/MobilenetV3/expanded_conv_7/expand/Conv2D_bn_offset", "op": "Const", "attr": {"dtype": {"type": "DT_FLOAT"}, "value": {"tensor": {"dtype": "DT_FLOAT", "tensorShape": {"dim": [{"size": "144"}]}}}}}, {"name": "FeatureExtractor/MobilenetV3/expanded_conv_7/depthwise/depthwise_weights", "op": "Const", "attr": {"value": {"tensor": {"dtype": "DT_FLOAT", "tensorShape": {"dim": [{"size": "5"}, {"size": "5"}, {"size": "144"}, {"size": "1"}]}}}, "dtype": {"type": "DT_FLOAT"}}}, {"name": "FeatureExtractor/MobilenetV3/expanded_conv_7/depthwise/depthwise_bn_offset", "op": "Const", "attr": {"value": {"tensor": {"dtype": "DT_FLOAT", "tensorShape": {"dim": [{"size": "144"}]}}}, "dtype": {"type": "DT_FLOAT"}}}, {"name": "FeatureExtractor/MobilenetV3/expanded_conv_7/project/Conv2D_weights", "op": "Const", "attr": {"value": {"tensor": {"dtype": "DT_FLOAT", "tensorShape": {"dim": [{"size": "1"}, {"size": "1"}, {"size": "144"}, {"size": "48"}]}}}, "dtype": {"type": "DT_FLOAT"}}}, {"name": "FeatureExtractor/MobilenetV3/expanded_conv_7/project/Conv2D_bn_offset", "op": "Const", "attr": {"value": {"tensor": {"dtype": "DT_FLOAT", "tensorShape": {"dim": [{"size": "48"}]}}}, "dtype": {"type": "DT_FLOAT"}}}, {"name": "FeatureExtractor/MobilenetV3/expanded_conv_8/expand/Conv2D_weights", "op": "Const", "attr": {"dtype": {"type": "DT_FLOAT"}, "value": {"tensor": {"dtype": "DT_FLOAT", "tensorShape": {"dim": [{"size": "1"}, {"size": "1"}, {"size": "48"}, {"size": "288"}]}}}}}, {"name": "FeatureExtractor/MobilenetV3/expanded_conv_8/expand/Conv2D_bn_offset", "op": "Const", "attr": {"value": {"tensor": {"dtype": "DT_FLOAT", "tensorShape": {"dim": [{"size": "288"}]}}}, "dtype": {"type": "DT_FLOAT"}}}, {"name": "BoxPredictor_0/BoxEncodingPredictor_depthwise/depthwise_weights", "op": "Const", "attr": {"dtype": {"type": "DT_FLOAT"}, "value": {"tensor": {"dtype": "DT_FLOAT", "tensorShape": {"dim": [{"size": "3"}, {"size": "3"}, {"size": "288"}, {"size": "1"}]}}}}}, {"name": "BoxPredictor_0/BoxEncodingPredictor_depthwise/depthwise_bn_offset", "op": "Const", "attr": {"value": {"tensor": {"dtype": "DT_FLOAT", "tensorShape": {"dim": [{"size": "288"}]}}}, "dtype": {"type": "DT_FLOAT"}}}, {"name": "BoxPredictor_0/ClassPredictor_depthwise/depthwise_weights", "op": "Const", "attr": {"dtype": {"type": "DT_FLOAT"}, "value": {"tensor": {"dtype": "DT_FLOAT", "tensorShape": {"dim": [{"size": "3"}, {"size": "3"}, {"size": "288"}, {"size": "1"}]}}}}}, {"name": "BoxPredictor_0/ClassPredictor_depthwise/depthwise_bn_offset", "op": "Const", "attr": {"value": {"tensor": {"dtype": "DT_FLOAT", "tensorShape": {"dim": [{"size": "288"}]}}}, "dtype": {"type": "DT_FLOAT"}}}, {"name": "FeatureExtractor/MobilenetV3/expanded_conv_8/depthwise/depthwise_weights", "op": "Const", "attr": {"dtype": {"type": "DT_FLOAT"}, "value": {"tensor": {"dtype": "DT_FLOAT", "tensorShape": {"dim": [{"size": "5"}, {"size": "5"}, {"size": "288"}, {"size": "1"}]}}}}}, {"name": "FeatureExtractor/MobilenetV3/expanded_conv_8/depthwise/depthwise_bn_offset", "op": "Const", "attr": {"dtype": {"type": "DT_FLOAT"}, "value": {"tensor": {"dtype": "DT_FLOAT", "tensorShape": {"dim": [{"size": "288"}]}}}}}, {"name": "FeatureExtractor/MobilenetV3/expanded_conv_8/project/Conv2D_weights", "op": "Const", "attr": {"value": {"tensor": {"dtype": "DT_FLOAT", "tensorShape": {"dim": [{"size": "1"}, {"size": "1"}, {"size": "288"}, {"size": "48"}]}}}, "dtype": {"type": "DT_FLOAT"}}}, {"name": "FeatureExtractor/MobilenetV3/expanded_conv_8/project/Conv2D_bn_offset", "op": "Const", "attr": {"dtype": {"type": "DT_FLOAT"}, "value": {"tensor": {"dtype": "DT_FLOAT", "tensorShape": {"dim": [{"size": "48"}]}}}}}, {"name": "FeatureExtractor/MobilenetV3/expanded_conv_9/expand/Conv2D_weights", "op": "Const", "attr": {"value": {"tensor": {"dtype": "DT_FLOAT", "tensorShape": {"dim": [{"size": "1"}, {"size": "1"}, {"size": "48"}, {"size": "288"}]}}}, "dtype": {"type": "DT_FLOAT"}}}, {"name": "FeatureExtractor/MobilenetV3/expanded_conv_9/expand/Conv2D_bn_offset", "op": "Const", "attr": {"value": {"tensor": {"dtype": "DT_FLOAT", "tensorShape": {"dim": [{"size": "288"}]}}}, "dtype": {"type": "DT_FLOAT"}}}, {"name": "FeatureExtractor/MobilenetV3/expanded_conv_9/depthwise/depthwise_weights", "op": "Const", "attr": {"value": {"tensor": {"dtype": "DT_FLOAT", "tensorShape": {"dim": [{"size": "5"}, {"size": "5"}, {"size": "288"}, {"size": "1"}]}}}, "dtype": {"type": "DT_FLOAT"}}}, {"name": "FeatureExtractor/MobilenetV3/expanded_conv_9/depthwise/depthwise_bn_offset", "op": "Const", "attr": {"value": {"tensor": {"dtype": "DT_FLOAT", "tensorShape": {"dim": [{"size": "288"}]}}}, "dtype": {"type": "DT_FLOAT"}}}, {"name": "FeatureExtractor/MobilenetV3/expanded_conv_9/project/Conv2D_weights", "op": "Const", "attr": {"value": {"tensor": {"dtype": "DT_FLOAT", "tensorShape": {"dim": [{"size": "1"}, {"size": "1"}, {"size": "288"}, {"size": "48"}]}}}, "dtype": {"type": "DT_FLOAT"}}}, {"name": "FeatureExtractor/MobilenetV3/expanded_conv_9/project/Conv2D_bn_offset", "op": "Const", "attr": {"value": {"tensor": {"dtype": "DT_FLOAT", "tensorShape": {"dim": [{"size": "48"}]}}}, "dtype": {"type": "DT_FLOAT"}}}, {"name": "FeatureExtractor/MobilenetV3/expanded_conv_10/expand/Conv2D_weights", "op": "Const", "attr": {"value": {"tensor": {"dtype": "DT_FLOAT", "tensorShape": {"dim": [{"size": "1"}, {"size": "1"}, {"size": "48"}, {"size": "288"}]}}}, "dtype": {"type": "DT_FLOAT"}}}, {"name": "FeatureExtractor/MobilenetV3/expanded_conv_10/expand/Conv2D_bn_offset", "op": "Const", "attr": {"dtype": {"type": "DT_FLOAT"}, "value": {"tensor": {"dtype": "DT_FLOAT", "tensorShape": {"dim": [{"size": "288"}]}}}}}, {"name": "FeatureExtractor/MobilenetV3/expanded_conv_10/depthwise/depthwise_weights", "op": "Const", "attr": {"dtype": {"type": "DT_FLOAT"}, "value": {"tensor": {"dtype": "DT_FLOAT", "tensorShape": {"dim": [{"size": "5"}, {"size": "5"}, {"size": "288"}, {"size": "1"}]}}}}}, {"name": "FeatureExtractor/MobilenetV3/expanded_conv_10/depthwise/depthwise_bn_offset", "op": "Const", "attr": {"dtype": {"type": "DT_FLOAT"}, "value": {"tensor": {"dtype": "DT_FLOAT", "tensorShape": {"dim": [{"size": "288"}]}}}}}, {"name": "FeatureExtractor/MobilenetV3/expanded_conv_10/project/Conv2D_weights", "op": "Const", "attr": {"dtype": {"type": "DT_FLOAT"}, "value": {"tensor": {"dtype": "DT_FLOAT", "tensorShape": {"dim": [{"size": "1"}, {"size": "1"}, {"size": "288"}, {"size": "48"}]}}}}}, {"name": "FeatureExtractor/MobilenetV3/expanded_conv_10/project/Conv2D_bn_offset", "op": "Const", "attr": {"value": {"tensor": {"dtype": "DT_FLOAT", "tensorShape": {"dim": [{"size": "48"}]}}}, "dtype": {"type": "DT_FLOAT"}}}, {"name": "FeatureExtractor/MobilenetV3/Conv_1/Conv2D_weights", "op": "Const", "attr": {"dtype": {"type": "DT_FLOAT"}, "value": {"tensor": {"dtype": "DT_FLOAT", "tensorShape": {"dim": [{"size": "1"}, {"size": "1"}, {"size": "48"}, {"size": "288"}]}}}}}, {"name": "FeatureExtractor/MobilenetV3/Conv_1/Conv2D_bn_offset", "op": "Const", "attr": {"dtype": {"type": "DT_FLOAT"}, "value": {"tensor": {"dtype": "DT_FLOAT", "tensorShape": {"dim": [{"size": "288"}]}}}}}, {"name": "BoxPredictor_1/BoxEncodingPredictor_depthwise/depthwise_weights", "op": "Const", "attr": {"dtype": {"type": "DT_FLOAT"}, "value": {"tensor": {"dtype": "DT_FLOAT", "tensorShape": {"dim": [{"size": "3"}, {"size": "3"}, {"size": "288"}, {"size": "1"}]}}}}}, {"name": "BoxPredictor_1/BoxEncodingPredictor_depthwise/depthwise_bn_offset", "op": "Const", "attr": {"dtype": {"type": "DT_FLOAT"}, "value": {"tensor": {"dtype": "DT_FLOAT", "tensorShape": {"dim": [{"size": "288"}]}}}}}, {"name": "BoxPredictor_1/ClassPredictor_depthwise/depthwise_weights", "op": "Const", "attr": {"dtype": {"type": "DT_FLOAT"}, "value": {"tensor": {"dtype": "DT_FLOAT", "tensorShape": {"dim": [{"size": "3"}, {"size": "3"}, {"size": "288"}, {"size": "1"}]}}}}}, {"name": "BoxPredictor_1/ClassPredictor_depthwise/depthwise_bn_offset", "op": "Const", "attr": {"dtype": {"type": "DT_FLOAT"}, "value": {"tensor": {"dtype": "DT_FLOAT", "tensorShape": {"dim": [{"size": "288"}]}}}}}, {"name": "FeatureExtractor/MobilenetV3/layer_13_1_Conv2d_2_1x1_256/Conv2D_weights", "op": "Const", "attr": {"value": {"tensor": {"dtype": "DT_FLOAT", "tensorShape": {"dim": [{"size": "1"}, {"size": "1"}, {"size": "288"}, {"size": "256"}]}}}, "dtype": {"type": "DT_FLOAT"}}}, {"name": "FeatureExtractor/MobilenetV3/layer_13_1_Conv2d_2_1x1_256/Conv2D_bn_offset", "op": "Const", "attr": {"dtype": {"type": "DT_FLOAT"}, "value": {"tensor": {"dtype": "DT_FLOAT", "tensorShape": {"dim": [{"size": "256"}]}}}}}, {"name": "FeatureExtractor/MobilenetV3/layer_13_2_Conv2d_2_3x3_s2_512_depthwise/depthwise_weights", "op": "Const", "attr": {"dtype": {"type": "DT_FLOAT"}, "value": {"tensor": {"dtype": "DT_FLOAT", "tensorShape": {"dim": [{"size": "3"}, {"size": "3"}, {"size": "256"}, {"size": "1"}]}}}}}, {"name": "FeatureExtractor/MobilenetV3/layer_13_2_Conv2d_2_3x3_s2_512_depthwise/depthwise_bn_offset", "op": "Const", "attr": {"value": {"tensor": {"dtype": "DT_FLOAT", "tensorShape": {"dim": [{"size": "256"}]}}}, "dtype": {"type": "DT_FLOAT"}}}, {"name": "FeatureExtractor/MobilenetV3/layer_13_2_Conv2d_2_3x3_s2_512/Conv2D_weights", "op": "Const", "attr": {"value": {"tensor": {"dtype": "DT_FLOAT", "tensorShape": {"dim": [{"size": "1"}, {"size": "1"}, {"size": "256"}, {"size": "512"}]}}}, "dtype": {"type": "DT_FLOAT"}}}, {"name": "FeatureExtractor/MobilenetV3/layer_13_2_Conv2d_2_3x3_s2_512/Conv2D_bn_offset", "op": "Const", "attr": {"value": {"tensor": {"dtype": "DT_FLOAT", "tensorShape": {"dim": [{"size": "512"}]}}}, "dtype": {"type": "DT_FLOAT"}}}, {"name": "BoxPredictor_2/BoxEncodingPredictor_depthwise/depthwise_weights", "op": "Const", "attr": {"dtype": {"type": "DT_FLOAT"}, "value": {"tensor": {"dtype": "DT_FLOAT", "tensorShape": {"dim": [{"size": "3"}, {"size": "3"}, {"size": "512"}, {"size": "1"}]}}}}}, {"name": "BoxPredictor_2/BoxEncodingPredictor_depthwise/depthwise_bn_offset", "op": "Const", "attr": {"value": {"tensor": {"dtype": "DT_FLOAT", "tensorShape": {"dim": [{"size": "512"}]}}}, "dtype": {"type": "DT_FLOAT"}}}, {"name": "BoxPredictor_2/ClassPredictor_depthwise/depthwise_weights", "op": "Const", "attr": {"value": {"tensor": {"dtype": "DT_FLOAT", "tensorShape": {"dim": [{"size": "3"}, {"size": "3"}, {"size": "512"}, {"size": "1"}]}}}, "dtype": {"type": "DT_FLOAT"}}}, {"name": "BoxPredictor_2/ClassPredictor_depthwise/depthwise_bn_offset", "op": "Const", "attr": {"dtype": {"type": "DT_FLOAT"}, "value": {"tensor": {"dtype": "DT_FLOAT", "tensorShape": {"dim": [{"size": "512"}]}}}}}, {"name": "FeatureExtractor/MobilenetV3/layer_13_1_Conv2d_3_1x1_128/Conv2D_weights", "op": "Const", "attr": {"dtype": {"type": "DT_FLOAT"}, "value": {"tensor": {"dtype": "DT_FLOAT", "tensorShape": {"dim": [{"size": "1"}, {"size": "1"}, {"size": "512"}, {"size": "128"}]}}}}}, {"name": "FeatureExtractor/MobilenetV3/layer_13_1_Conv2d_3_1x1_128/Conv2D_bn_offset", "op": "Const", "attr": {"value": {"tensor": {"dtype": "DT_FLOAT", "tensorShape": {"dim": [{"size": "128"}]}}}, "dtype": {"type": "DT_FLOAT"}}}, {"name": "FeatureExtractor/MobilenetV3/layer_13_2_Conv2d_3_3x3_s2_256_depthwise/depthwise_weights", "op": "Const", "attr": {"dtype": {"type": "DT_FLOAT"}, "value": {"tensor": {"dtype": "DT_FLOAT", "tensorShape": {"dim": [{"size": "3"}, {"size": "3"}, {"size": "128"}, {"size": "1"}]}}}}}, {"name": "FeatureExtractor/MobilenetV3/layer_13_2_Conv2d_3_3x3_s2_256_depthwise/depthwise_bn_offset", "op": "Const", "attr": {"dtype": {"type": "DT_FLOAT"}, "value": {"tensor": {"dtype": "DT_FLOAT", "tensorShape": {"dim": [{"size": "128"}]}}}}}, {"name": "FeatureExtractor/MobilenetV3/layer_13_2_Conv2d_3_3x3_s2_256/Conv2D_weights", "op": "Const", "attr": {"value": {"tensor": {"dtype": "DT_FLOAT", "tensorShape": {"dim": [{"size": "1"}, {"size": "1"}, {"size": "128"}, {"size": "256"}]}}}, "dtype": {"type": "DT_FLOAT"}}}, {"name": "FeatureExtractor/MobilenetV3/layer_13_2_Conv2d_3_3x3_s2_256/Conv2D_bn_offset", "op": "Const", "attr": {"dtype": {"type": "DT_FLOAT"}, "value": {"tensor": {"dtype": "DT_FLOAT", "tensorShape": {"dim": [{"size": "256"}]}}}}}, {"name": "BoxPredictor_3/BoxEncodingPredictor_depthwise/depthwise_weights", "op": "Const", "attr": {"dtype": {"type": "DT_FLOAT"}, "value": {"tensor": {"dtype": "DT_FLOAT", "tensorShape": {"dim": [{"size": "3"}, {"size": "3"}, {"size": "256"}, {"size": "1"}]}}}}}, {"name": "BoxPredictor_3/BoxEncodingPredictor_depthwise/depthwise_bn_offset", "op": "Const", "attr": {"value": {"tensor": {"dtype": "DT_FLOAT", "tensorShape": {"dim": [{"size": "256"}]}}}, "dtype": {"type": "DT_FLOAT"}}}, {"name": "BoxPredictor_3/ClassPredictor_depthwise/depthwise_weights", "op": "Const", "attr": {"dtype": {"type": "DT_FLOAT"}, "value": {"tensor": {"dtype": "DT_FLOAT", "tensorShape": {"dim": [{"size": "3"}, {"size": "3"}, {"size": "256"}, {"size": "1"}]}}}}}, {"name": "BoxPredictor_3/ClassPredictor_depthwise/depthwise_bn_offset", "op": "Const", "attr": {"dtype": {"type": "DT_FLOAT"}, "value": {"tensor": {"dtype": "DT_FLOAT", "tensorShape": {"dim": [{"size": "256"}]}}}}}, {"name": "FeatureExtractor/MobilenetV3/layer_13_1_Conv2d_4_1x1_128/Conv2D_weights", "op": "Const", "attr": {"value": {"tensor": {"dtype": "DT_FLOAT", "tensorShape": {"dim": [{"size": "1"}, {"size": "1"}, {"size": "256"}, {"size": "128"}]}}}, "dtype": {"type": "DT_FLOAT"}}}, {"name": "FeatureExtractor/MobilenetV3/layer_13_1_Conv2d_4_1x1_128/Conv2D_bn_offset", "op": "Const", "attr": {"value": {"tensor": {"dtype": "DT_FLOAT", "tensorShape": {"dim": [{"size": "128"}]}}}, "dtype": {"type": "DT_FLOAT"}}}, {"name": "BoxPredictor_5/ClassPredictor_depthwise/depthwise_weights", "op": "Const", "attr": {"dtype": {"type": "DT_FLOAT"}, "value": {"tensor": {"dtype": "DT_FLOAT", "tensorShape": {"dim": [{"size": "3"}, {"size": "3"}, {"size": "128"}, {"size": "1"}]}}}}}, {"name": "FeatureExtractor/MobilenetV3/layer_13_2_Conv2d_4_3x3_s2_256_depthwise/depthwise_weights", "op": "Const", "attr": {"dtype": {"type": "DT_FLOAT"}, "value": {"tensor": {"dtype": "DT_FLOAT", "tensorShape": {"dim": [{"size": "3"}, {"size": "3"}, {"size": "128"}, {"size": "1"}]}}}}}, {"name": "FeatureExtractor/MobilenetV3/layer_13_2_Conv2d_4_3x3_s2_256_depthwise/depthwise_bn_offset", "op": "Const", "attr": {"dtype": {"type": "DT_FLOAT"}, "value": {"tensor": {"dtype": "DT_FLOAT", "tensorShape": {"dim": [{"size": "128"}]}}}}}, {"name": "FeatureExtractor/MobilenetV3/layer_13_2_Conv2d_4_3x3_s2_256/Conv2D_weights", "op": "Const", "attr": {"value": {"tensor": {"dtype": "DT_FLOAT", "tensorShape": {"dim": [{"size": "1"}, {"size": "1"}, {"size": "128"}, {"size": "256"}]}}}, "dtype": {"type": "DT_FLOAT"}}}, {"name": "FeatureExtractor/MobilenetV3/layer_13_2_Conv2d_4_3x3_s2_256/Conv2D_bn_offset", "op": "Const", "attr": {"dtype": {"type": "DT_FLOAT"}, "value": {"tensor": {"dtype": "DT_FLOAT", "tensorShape": {"dim": [{"size": "256"}]}}}}}, {"name": "BoxPredictor_5/ClassPredictor_depthwise/depthwise_bn_offset", "op": "Const", "attr": {"dtype": {"type": "DT_FLOAT"}, "value": {"tensor": {"dtype": "DT_FLOAT", "tensorShape": {"dim": [{"size": "128"}]}}}}}, {"name": "BoxPredictor_4/BoxEncodingPredictor_depthwise/depthwise_weights", "op": "Const", "attr": {"value": {"tensor": {"dtype": "DT_FLOAT", "tensorShape": {"dim": [{"size": "3"}, {"size": "3"}, {"size": "256"}, {"size": "1"}]}}}, "dtype": {"type": "DT_FLOAT"}}}, {"name": "BoxPredictor_4/BoxEncodingPredictor_depthwise/depthwise_bn_offset", "op": "Const", "attr": {"value": {"tensor": {"dtype": "DT_FLOAT", "tensorShape": {"dim": [{"size": "256"}]}}}, "dtype": {"type": "DT_FLOAT"}}}, {"name": "BoxPredictor_4/ClassPredictor_depthwise/depthwise_weights", "op": "Const", "attr": {"value": {"tensor": {"dtype": "DT_FLOAT", "tensorShape": {"dim": [{"size": "3"}, {"size": "3"}, {"size": "256"}, {"size": "1"}]}}}, "dtype": {"type": "DT_FLOAT"}}}, {"name": "BoxPredictor_4/ClassPredictor_depthwise/depthwise_bn_offset", "op": "Const", "attr": {"value": {"tensor": {"dtype": "DT_FLOAT", "tensorShape": {"dim": [{"size": "256"}]}}}, "dtype": {"type": "DT_FLOAT"}}}, {"name": "FeatureExtractor/MobilenetV3/layer_13_1_Conv2d_5_1x1_64/Conv2D_weights", "op": "Const", "attr": {"dtype": {"type": "DT_FLOAT"}, "value": {"tensor": {"dtype": "DT_FLOAT", "tensorShape": {"dim": [{"size": "1"}, {"size": "1"}, {"size": "256"}, {"size": "64"}]}}}}}, {"name": "FeatureExtractor/MobilenetV3/layer_13_1_Conv2d_5_1x1_64/Conv2D_bn_offset", "op": "Const", "attr": {"value": {"tensor": {"dtype": "DT_FLOAT", "tensorShape": {"dim": [{"size": "64"}]}}}, "dtype": {"type": "DT_FLOAT"}}}, {"name": "Preprocessor/map/while/Enter_1", "op": "Enter", "input": ["Preprocessor/map/Const"], "attr": {"T": {"type": "DT_INT32"}, "frame_name": {"s": "UHJlcHJvY2Vzc29yL21hcC93aGlsZS93aGlsZV9jb250ZXh0"}, "is_constant": {"b": false}, "parallel_iterations": {"i": "32"}}}, {"name": "Preprocessor/map/while/Enter", "op": "Enter", "input": ["Preprocessor/map/while/iteration_counter"], "attr": {"frame_name": {"s": "UHJlcHJvY2Vzc29yL21hcC93aGlsZS93aGlsZV9jb250ZXh0"}, "is_constant": {"b": false}, "parallel_iterations": {"i": "32"}, "T": {"type": "DT_INT32"}}}, {"name": "Cast", "op": "Cast", "input": ["image_tensor"], "attr": {"Truncate": {"b": false}, "DstT": {"type": "DT_FLOAT"}, "SrcT": {"type": "DT_UINT8"}}}, {"name": "Preprocessor/map/while/Merge_1", "op": "Merge", "input": ["Preprocessor/map/while/Enter_1", "Preprocessor/map/while/NextIteration_1"], "attr": {"N": {"i": "2"}, "T": {"type": "DT_INT32"}}}, {"name": "Preprocessor/map/while/Merge", "op": "Merge", "input": ["Preprocessor/map/while/Enter", "Preprocessor/map/while/NextIteration"], "attr": {"N": {"i": "2"}, "T": {"type": "DT_INT32"}}}, {"name": "Preprocessor/mul", "op": "Mul", "input": ["Preprocessor/mul/x", "Cast"], "attr": {"T": {"type": "DT_FLOAT"}}}, {"name": "Preprocessor/sub", "op": "Sub", "input": ["Preprocessor/mul", "Preprocessor/sub/y"], "attr": {"T": {"type": "DT_FLOAT"}}}, {"name": "Preprocessor/map/TensorArrayUnstack/Shape", "op": "Shape", "input": ["Preprocessor/sub"], "attr": {"T": {"type": "DT_FLOAT"}, "out_type": {"type": "DT_INT32"}}}, {"name": "Preprocessor/map/Shape", "op": "Shape", "input": ["Preprocessor/sub"], "attr": {"out_type": {"type": "DT_INT32"}, "T": {"type": "DT_FLOAT"}}}, {"name": "Preprocessor/map/TensorArrayUnstack/strided_slice", "op": "StridedSlice", "input": ["Preprocessor/map/TensorArrayUnstack/Shape", "Preprocessor/map/TensorArrayUnstack/strided_slice/stack", "Preprocessor/map/TensorArrayUnstack/strided_slice/stack_1", "Preprocessor/map/TensorArrayUnstack/strided_slice/stack_2"], "attr": {"new_axis_mask": {"i": "0"}, "begin_mask": {"i": "0"}, "ellipsis_mask": {"i": "0"}, "Index": {"type": "DT_INT32"}, "T": {"type": "DT_INT32"}, "end_mask": {"i": "0"}, "shrink_axis_mask": {"i": "1"}}}, {"name": "Preprocessor/map/strided_slice", "op": "StridedSlice", "input": ["Preprocessor/map/Shape", "Preprocessor/map/strided_slice/stack", "Preprocessor/map/strided_slice/stack_1", "Preprocessor/map/strided_slice/stack_2"], "attr": {"ellipsis_mask": {"i": "0"}, "T": {"type": "DT_INT32"}, "Index": {"type": "DT_INT32"}, "shrink_axis_mask": {"i": "1"}, "begin_mask": {"i": "0"}, "end_mask": {"i": "0"}, "new_axis_mask": {"i": "0"}}}, {"name": "Preprocessor/map/TensorArrayUnstack/range", "op": "Range", "input": ["Preprocessor/map/TensorArrayUnstack/range/start", "Preprocessor/map/TensorArrayUnstack/strided_slice", "Preprocessor/map/TensorArrayUnstack/range/delta"], "attr": {"Tidx": {"type": "DT_INT32"}}}, {"name": "Preprocessor/map/TensorArray_1", "op": "TensorArrayV3", "input": ["Preprocessor/map/strided_slice"], "attr": {"dtype": {"type": "DT_FLOAT"}, "dynamic_size": {"b": false}, "identical_element_shapes": {"b": true}, "element_shape": {"shape": {"unknownRank": true}}, "clear_after_read": {"b": true}, "tensor_array_name": {"s": ""}}}, {"name": "Preprocessor/map/TensorArray", "op": "TensorArrayV3", "input": ["Preprocessor/map/strided_slice"], "attr": {"identical_element_shapes": {"b": true}, "element_shape": {"shape": {"unknownRank": true}}, "tensor_array_name": {"s": ""}, "clear_after_read": {"b": true}, "dynamic_size": {"b": false}, "dtype": {"type": "DT_FLOAT"}}}, {"name": "Preprocessor/map/while/Less/Enter", "op": "Enter", "input": ["Preprocessor/map/strided_slice"], "attr": {"frame_name": {"s": "UHJlcHJvY2Vzc29yL21hcC93aGlsZS93aGlsZV9jb250ZXh0"}, "parallel_iterations": {"i": "32"}, "is_constant": {"b": true}, "T": {"type": "DT_INT32"}}}, {"name": "Preprocessor/map/while/TensorArrayWrite/TensorArrayWriteV3/Enter", "op": "Enter", "input": ["Preprocessor/map/TensorArray_1"], "attr": {"T": {"type": "DT_RESOURCE"}, "frame_name": {"s": "UHJlcHJvY2Vzc29yL21hcC93aGlsZS93aGlsZV9jb250ZXh0"}, "parallel_iterations": {"i": "32"}, "is_constant": {"b": true}}}, {"name": "Preprocessor/map/while/Enter_2", "op": "Enter", "input": ["Preprocessor/map/TensorArray_1:1"], "attr": {"T": {"type": "DT_FLOAT"}, "parallel_iterations": {"i": "32"}, "is_constant": {"b": false}, "frame_name": {"s": "UHJlcHJvY2Vzc29yL21hcC93aGlsZS93aGlsZV9jb250ZXh0"}}}, {"name": "Preprocessor/map/while/TensorArrayReadV3/Enter", "op": "Enter", "input": ["Preprocessor/map/TensorArray"], "attr": {"parallel_iterations": {"i": "32"}, "is_constant": {"b": true}, "frame_name": {"s": "UHJlcHJvY2Vzc29yL21hcC93aGlsZS93aGlsZV9jb250ZXh0"}, "T": {"type": "DT_RESOURCE"}}}, {"name": "Preprocessor/map/TensorArrayUnstack/TensorArrayScatter/TensorArrayScatterV3", "op": "TensorArrayScatterV3", "input": ["Preprocessor/map/TensorArray", "Preprocessor/map/TensorArrayUnstack/range", "Preprocessor/sub", "Preprocessor/map/TensorArray:1"], "attr": {"T": {"type": "DT_FLOAT"}}}, {"name": "Preprocessor/map/while/Less", "op": "Less", "input": ["Preprocessor/map/while/Merge", "Preprocessor/map/while/Less/Enter"], "attr": {"T": {"type": "DT_INT32"}}}, {"name": "Preprocessor/map/while/Less_1", "op": "Less", "input": ["Preprocessor/map/while/Merge_1", "Preprocessor/map/while/Less/Enter"], "attr": {"T": {"type": "DT_INT32"}}}, {"name": "Preprocessor/map/while/Merge_2", "op": "Merge", "input": ["Preprocessor/map/while/Enter_2", "Preprocessor/map/while/NextIteration_2"], "attr": {"T": {"type": "DT_FLOAT"}, "N": {"i": "2"}}}, {"name": "Preprocessor/map/while/TensorArrayReadV3/Enter_1", "op": "Enter", "input": ["Preprocessor/map/TensorArrayUnstack/TensorArrayScatter/TensorArrayScatterV3"], "attr": {"parallel_iterations": {"i": "32"}, "frame_name": {"s": "UHJlcHJvY2Vzc29yL21hcC93aGlsZS93aGlsZV9jb250ZXh0"}, "is_constant": {"b": true}, "T": {"type": "DT_FLOAT"}}}, {"name": "Preprocessor/map/while/LogicalAnd", "op": "LogicalAnd", "input": ["Preprocessor/map/while/Less", "Preprocessor/map/while/Less_1"]}, {"name": "Preprocessor/map/while/LoopCond", "op": "LoopCond", "input": ["Preprocessor/map/while/LogicalAnd"]}, {"name": "Preprocessor/map/while/Switch_1", "op": "Switch", "input": ["Preprocessor/map/while/Merge_1", "Preprocessor/map/while/LoopCond"], "attr": {"T": {"type": "DT_INT32"}}}, {"name": "Preprocessor/map/while/Switch", "op": "Switch", "input": ["Preprocessor/map/while/Merge", "Preprocessor/map/while/LoopCond"], "attr": {"T": {"type": "DT_INT32"}}}, {"name": "Preprocessor/map/while/Switch_2", "op": "Switch", "input": ["Preprocessor/map/while/Merge_2", "Preprocessor/map/while/LoopCond"], "attr": {"T": {"type": "DT_FLOAT"}}}, {"name": "Preprocessor/map/while/TensorArrayReadV3", "op": "TensorArrayReadV3", "input": ["Preprocessor/map/while/TensorArrayReadV3/Enter", "Preprocessor/map/while/Switch_1:1", "Preprocessor/map/while/TensorArrayReadV3/Enter_1"], "attr": {"dtype": {"type": "DT_FLOAT"}}}, {"name": "Preprocessor/map/while/Identity", "op": "Identity", "input": ["Preprocessor/map/while/Switch:1"], "attr": {"T": {"type": "DT_INT32"}}}, {"name": "Preprocessor/map/while/Exit_2", "op": "Exit", "input": ["Preprocessor/map/while/Switch_2"], "attr": {"T": {"type": "DT_FLOAT"}}}, {"name": "Preprocessor/map/while/ResizeImage/resize/ExpandDims/dim", "op": "Const", "input": ["^Preprocessor/map/while/Identity"], "attr": {"value": {"tensor": {"dtype": "DT_INT32", "tensorShape": {}}}, "dtype": {"type": "DT_INT32"}}}, {"name": "Preprocessor/map/while/ResizeImage/stack", "op": "Const", "input": ["^Preprocessor/map/while/Identity"], "attr": {"value": {"tensor": {"dtype": "DT_INT32", "tensorShape": {"dim": [{"size": "2"}]}}}, "dtype": {"type": "DT_INT32"}}}, {"name": "Preprocessor/map/while/add/y", "op": "Const", "input": ["^Preprocessor/map/while/Identity"], "attr": {"value": {"tensor": {"dtype": "DT_INT32", "tensorShape": {}}}, "dtype": {"type": "DT_INT32"}}}, {"name": "Preprocessor/map/while/add_1/y", "op": "Const", "input": ["^Preprocessor/map/while/Identity"], "attr": {"value": {"tensor": {"dtype": "DT_INT32", "tensorShape": {}}}, "dtype": {"type": "DT_INT32"}}}, {"name": "Preprocessor/map/TensorArrayStack/TensorArraySizeV3", "op": "TensorArraySizeV3", "input": ["Preprocessor/map/TensorArray_1", "Preprocessor/map/while/Exit_2"]}, {"name": "Preprocessor/map/while/ResizeImage/resize/ExpandDims", "op": "ExpandDims", "input": ["Preprocessor/map/while/TensorArrayReadV3", "Preprocessor/map/while/ResizeImage/resize/ExpandDims/dim"], "attr": {"T": {"type": "DT_FLOAT"}, "Tdim": {"type": "DT_INT32"}}}, {"name": "Preprocessor/map/while/add", "op": "AddV2", "input": ["Preprocessor/map/while/Identity", "Preprocessor/map/while/add/y"], "attr": {"T": {"type": "DT_INT32"}}}, {"name": "Preprocessor/map/while/add_1", "op": "AddV2", "input": ["Preprocessor/map/while/Switch_1:1", "Preprocessor/map/while/add_1/y"], "attr": {"T": {"type": "DT_INT32"}}}, {"name": "Preprocessor/map/TensorArrayStack/range", "op": "Range", "input": ["Preprocessor/map/TensorArrayStack/range/start", "Preprocessor/map/TensorArrayStack/TensorArraySizeV3", "Preprocessor/map/TensorArrayStack/range/delta"], "attr": {"Tidx": {"type": "DT_INT32"}}}, {"name": "Preprocessor/map/while/ResizeImage/resize/ResizeBilinear", "op": "ResizeBilinear", "input": ["Preprocessor/map/while/ResizeImage/resize/ExpandDims", "Preprocessor/map/while/ResizeImage/stack"], "attr": {"half_pixel_centers": {"b": false}, "align_corners": {"b": false}, "T": {"type": "DT_FLOAT"}}}, {"name": "Preprocessor/map/while/NextIteration", "op": "NextIteration", "input": ["Preprocessor/map/while/add"], "attr": {"T": {"type": "DT_INT32"}}}, {"name": "Preprocessor/map/while/NextIteration_1", "op": "NextIteration", "input": ["Preprocessor/map/while/add_1"], "attr": {"T": {"type": "DT_INT32"}}}, {"name": "Preprocessor/map/TensorArrayStack/TensorArrayGatherV3", "op": "TensorArrayGatherV3", "input": ["Preprocessor/map/TensorArray_1", "Preprocessor/map/TensorArrayStack/range", "Preprocessor/map/while/Exit_2"], "attr": {"dtype": {"type": "DT_FLOAT"}, "element_shape": {"shape": {"dim": [{"size": "320"}, {"size": "320"}, {"size": "3"}]}}}}, {"name": "Preprocessor/map/while/ResizeImage/resize/Squeeze", "op": "Squeeze", "input": ["Preprocessor/map/while/ResizeImage/resize/ResizeBilinear"], "attr": {"T": {"type": "DT_FLOAT"}, "squeeze_dims": {"list": {"i": ["0"]}}}}, {"name": "FeatureExtractor/MobilenetV3/Conv/BatchNorm/FusedBatchNormV3", "op": "_FusedConv2D", "input": ["Preprocessor/map/TensorArrayStack/TensorArrayGatherV3", "FeatureExtractor/MobilenetV3/Conv/Conv2D_weights", "FeatureExtractor/MobilenetV3/Conv/Conv2D_bn_offset"], "device": "/device:CPU:0", "attr": {"explicit_paddings": {"list": {}}, "padding": {"s": "U0FNRQ=="}, "num_args": {"i": "1"}, "fused_ops": {"list": {"s": ["Qmlhc0FkZA=="]}}, "dilations": {"list": {"i": ["1", "1", "1", "1"]}}, "T": {"type": "DT_FLOAT"}, "data_format": {"s": "TkhXQw=="}, "strides": {"list": {"i": ["1", "2", "2", "1"]}}, "use_cudnn_on_gpu": {"b": true}, "epsilon": {"f": 0.0}}}, {"name": "Preprocessor/map/while/TensorArrayWrite/TensorArrayWriteV3", "op": "TensorArrayWriteV3", "input": ["Preprocessor/map/while/TensorArrayWrite/TensorArrayWriteV3/Enter", "Preprocessor/map/while/Switch_1:1", "Preprocessor/map/while/ResizeImage/resize/Squeeze", "Preprocessor/map/while/Switch_2:1"], "attr": {"T": {"type": "DT_FLOAT"}}}, {"name": "FeatureExtractor/MobilenetV3/Conv/hard_swish/mul", "op": "Mul", "input": ["FeatureExtractor/MobilenetV3/Conv/hard_swish/mul_1/y", "FeatureExtractor/MobilenetV3/Conv/BatchNorm/FusedBatchNormV3"], "attr": {"T": {"type": "DT_FLOAT"}, "_grappler_ArithmeticOptimizer_MinimizeBroadcasts": {"b": true}}}, {"name": "FeatureExtractor/MobilenetV3/Conv/hard_swish/add", "op": "AddV2", "input": ["FeatureExtractor/MobilenetV3/Conv/BatchNorm/FusedBatchNormV3", "FeatureExtractor/MobilenetV3/Conv/hard_swish/add/y"], "attr": {"T": {"type": "DT_FLOAT"}}}, {"name": "Preprocessor/map/while/NextIteration_2", "op": "NextIteration", "input": ["Preprocessor/map/while/TensorArrayWrite/TensorArrayWriteV3"], "attr": {"T": {"type": "DT_FLOAT"}}}, {"name": "FeatureExtractor/MobilenetV3/Conv/hard_swish/Relu6", "op": "Relu6", "input": ["FeatureExtractor/MobilenetV3/Conv/hard_swish/add"], "attr": {"T": {"type": "DT_FLOAT"}}}, {"name": "FeatureExtractor/MobilenetV3/Conv/hard_swish/mul_1", "op": "Mul", "input": ["FeatureExtractor/MobilenetV3/Conv/hard_swish/mul", "FeatureExtractor/MobilenetV3/Conv/hard_swish/Relu6"], "attr": {"T": {"type": "DT_FLOAT"}, "_grappler_ArithmeticOptimizer_MinimizeBroadcasts": {"b": true}}}, {"name": "FeatureExtractor/MobilenetV3/expanded_conv/depthwise/depthwise", "op": "FusedDepthwiseConv2dNative", "input": ["FeatureExtractor/MobilenetV3/Conv/hard_swish/mul_1", "FeatureExtractor/MobilenetV3/expanded_conv/depthwise/depthwise_weights", "FeatureExtractor/MobilenetV3/expanded_conv/depthwise/depthwise_bn_offset"], "attr": {"explicit_paddings": {"list": {}}, "fused_ops": {"list": {"s": ["Qmlhc0FkZA==", "UmVsdQ=="]}}, "strides": {"list": {"i": ["1", "2", "2", "1"]}}, "T": {"type": "DT_FLOAT"}, "data_format": {"s": "TkhXQw=="}, "dilations": {"list": {"i": ["1", "1", "1", "1"]}}, "num_args": {"i": "1"}, "padding": {"s": "U0FNRQ=="}}}, {"name": "FeatureExtractor/MobilenetV3/expanded_conv/squeeze_excite/Mean", "op": "Mean", "input": ["FeatureExtractor/MobilenetV3/expanded_conv/depthwise/depthwise", "FeatureExtractor/MobilenetV3/expanded_conv/squeeze_excite/Mean/reduction_indices"], "attr": {"keep_dims": {"b": true}, "Tidx": {"type": "DT_INT32"}, "T": {"type": "DT_FLOAT"}}}, {"name": "FeatureExtractor/MobilenetV3/expanded_conv/squeeze_excite/Conv/Relu", "op": "_FusedConv2D", "input": ["FeatureExtractor/MobilenetV3/expanded_conv/squeeze_excite/Mean", "FeatureExtractor/MobilenetV3/expanded_conv/squeeze_excite/Conv/weights", "FeatureExtractor/MobilenetV3/expanded_conv/squeeze_excite/Conv/biases"], "device": "/device:CPU:0", "attr": {"strides": {"list": {"i": ["1", "1", "1", "1"]}}, "num_args": {"i": "1"}, "epsilon": {"f": 0.0}, "fused_ops": {"list": {"s": ["Qmlhc0FkZA==", "UmVsdQ=="]}}, "use_cudnn_on_gpu": {"b": true}, "T": {"type": "DT_FLOAT"}, "dilations": {"list": {"i": ["1", "1", "1", "1"]}}, "padding": {"s": "U0FNRQ=="}, "data_format": {"s": "TkhXQw=="}, "explicit_paddings": {"list": {}}}}, {"name": "FeatureExtractor/MobilenetV3/expanded_conv/squeeze_excite/Conv_1/BiasAdd", "op": "_FusedConv2D", "input": ["FeatureExtractor/MobilenetV3/expanded_conv/squeeze_excite/Conv/Relu", "FeatureExtractor/MobilenetV3/expanded_conv/squeeze_excite/Conv_1/weights", "FeatureExtractor/MobilenetV3/expanded_conv/squeeze_excite/Conv_1/biases"], "device": "/device:CPU:0", "attr": {"epsilon": {"f": 0.0}, "dilations": {"list": {"i": ["1", "1", "1", "1"]}}, "explicit_paddings": {"list": {}}, "T": {"type": "DT_FLOAT"}, "num_args": {"i": "1"}, "data_format": {"s": "TkhXQw=="}, "padding": {"s": "U0FNRQ=="}, "fused_ops": {"list": {"s": ["Qmlhc0FkZA=="]}}, "strides": {"list": {"i": ["1", "1", "1", "1"]}}, "use_cudnn_on_gpu": {"b": true}}}, {"name": "FeatureExtractor/MobilenetV3/expanded_conv/squeeze_excite/Conv_1/add", "op": "AddV2", "input": ["FeatureExtractor/MobilenetV3/expanded_conv/squeeze_excite/Conv_1/BiasAdd", "FeatureExtractor/MobilenetV3/expanded_conv/squeeze_excite/Conv_1/add/y"], "attr": {"T": {"type": "DT_FLOAT"}}}, {"name": "FeatureExtractor/MobilenetV3/expanded_conv/squeeze_excite/Conv_1/Relu6", "op": "Relu6", "input": ["FeatureExtractor/MobilenetV3/expanded_conv/squeeze_excite/Conv_1/add"], "attr": {"T": {"type": "DT_FLOAT"}}}, {"name": "FeatureExtractor/MobilenetV3/expanded_conv/squeeze_excite/Conv_1/mul", "op": "Mul", "input": ["FeatureExtractor/MobilenetV3/expanded_conv/squeeze_excite/Conv_1/mul/y", "FeatureExtractor/MobilenetV3/expanded_conv/squeeze_excite/Conv_1/Relu6"], "attr": {"T": {"type": "DT_FLOAT"}, "_grappler_ArithmeticOptimizer_MinimizeBroadcasts": {"b": true}}}, {"name": "FeatureExtractor/MobilenetV3/expanded_conv/squeeze_excite/mul", "op": "Mul", "input": ["FeatureExtractor/MobilenetV3/expanded_conv/squeeze_excite/Conv_1/mul", "FeatureExtractor/MobilenetV3/expanded_conv/depthwise/depthwise"], "attr": {"_grappler_ArithmeticOptimizer_MinimizeBroadcasts": {"b": true}, "T": {"type": "DT_FLOAT"}}}, {"name": "FeatureExtractor/MobilenetV3/expanded_conv/project/BatchNorm/FusedBatchNormV3", "op": "_FusedConv2D", "input": ["FeatureExtractor/MobilenetV3/expanded_conv/squeeze_excite/mul", "FeatureExtractor/MobilenetV3/expanded_conv/project/Conv2D_weights", "FeatureExtractor/MobilenetV3/expanded_conv/project/Conv2D_bn_offset"], "device": "/device:CPU:0", "attr": {"T": {"type": "DT_FLOAT"}, "strides": {"list": {"i": ["1", "1", "1", "1"]}}, "use_cudnn_on_gpu": {"b": true}, "dilations": {"list": {"i": ["1", "1", "1", "1"]}}, "data_format": {"s": "TkhXQw=="}, "epsilon": {"f": 0.0}, "padding": {"s": "U0FNRQ=="}, "num_args": {"i": "1"}, "fused_ops": {"list": {"s": ["Qmlhc0FkZA=="]}}, "explicit_paddings": {"list": {}}}}, {"name": "FeatureExtractor/MobilenetV3/expanded_conv_1/expand/Relu", "op": "_FusedConv2D", "input": ["FeatureExtractor/MobilenetV3/expanded_conv/project/BatchNorm/FusedBatchNormV3", "FeatureExtractor/MobilenetV3/expanded_conv_1/expand/Conv2D_weights", "FeatureExtractor/MobilenetV3/expanded_conv_1/expand/Conv2D_bn_offset"], "device": "/device:CPU:0", "attr": {"T": {"type": "DT_FLOAT"}, "epsilon": {"f": 0.0}, "strides": {"list": {"i": ["1", "1", "1", "1"]}}, "num_args": {"i": "1"}, "padding": {"s": "U0FNRQ=="}, "explicit_paddings": {"list": {}}, "fused_ops": {"list": {"s": ["Qmlhc0FkZA==", "UmVsdQ=="]}}, "dilations": {"list": {"i": ["1", "1", "1", "1"]}}, "use_cudnn_on_gpu": {"b": true}, "data_format": {"s": "TkhXQw=="}}}, {"name": "FeatureExtractor/MobilenetV3/expanded_conv_1/depthwise/depthwise", "op": "FusedDepthwiseConv2dNative", "input": ["FeatureExtractor/MobilenetV3/expanded_conv_1/expand/Relu", "FeatureExtractor/MobilenetV3/expanded_conv_1/depthwise/depthwise_weights", "FeatureExtractor/MobilenetV3/expanded_conv_1/depthwise/depthwise_bn_offset"], "attr": {"T": {"type": "DT_FLOAT"}, "explicit_paddings": {"list": {}}, "dilations": {"list": {"i": ["1", "1", "1", "1"]}}, "strides": {"list": {"i": ["1", "2", "2", "1"]}}, "fused_ops": {"list": {"s": ["Qmlhc0FkZA==", "UmVsdQ=="]}}, "padding": {"s": "U0FNRQ=="}, "data_format": {"s": "TkhXQw=="}, "num_args": {"i": "1"}}}, {"name": "FeatureExtractor/MobilenetV3/expanded_conv_1/project/BatchNorm/FusedBatchNormV3", "op": "_FusedConv2D", "input": ["FeatureExtractor/MobilenetV3/expanded_conv_1/depthwise/depthwise", "FeatureExtractor/MobilenetV3/expanded_conv_1/project/Conv2D_weights", "FeatureExtractor/MobilenetV3/expanded_conv_1/project/Conv2D_bn_offset"], "device": "/device:CPU:0", "attr": {"explicit_paddings": {"list": {}}, "epsilon": {"f": 0.0}, "num_args": {"i": "1"}, "strides": {"list": {"i": ["1", "1", "1", "1"]}}, "dilations": {"list": {"i": ["1", "1", "1", "1"]}}, "T": {"type": "DT_FLOAT"}, "padding": {"s": "U0FNRQ=="}, "data_format": {"s": "TkhXQw=="}, "fused_ops": {"list": {"s": ["Qmlhc0FkZA=="]}}, "use_cudnn_on_gpu": {"b": true}}}, {"name": "FeatureExtractor/MobilenetV3/expanded_conv_2/expand/Relu", "op": "_FusedConv2D", "input": ["FeatureExtractor/MobilenetV3/expanded_conv_1/project/BatchNorm/FusedBatchNormV3", "FeatureExtractor/MobilenetV3/expanded_conv_2/expand/Conv2D_weights", "FeatureExtractor/MobilenetV3/expanded_conv_2/expand/Conv2D_bn_offset"], "device": "/device:CPU:0", "attr": {"T": {"type": "DT_FLOAT"}, "dilations": {"list": {"i": ["1", "1", "1", "1"]}}, "data_format": {"s": "TkhXQw=="}, "padding": {"s": "U0FNRQ=="}, "fused_ops": {"list": {"s": ["Qmlhc0FkZA==", "UmVsdQ=="]}}, "use_cudnn_on_gpu": {"b": true}, "explicit_paddings": {"list": {}}, "epsilon": {"f": 0.0}, "num_args": {"i": "1"}, "strides": {"list": {"i": ["1", "1", "1", "1"]}}}}, {"name": "FeatureExtractor/MobilenetV3/expanded_conv_2/depthwise/depthwise", "op": "FusedDepthwiseConv2dNative", "input": ["FeatureExtractor/MobilenetV3/expanded_conv_2/expand/Relu", "FeatureExtractor/MobilenetV3/expanded_conv_2/depthwise/depthwise_weights", "FeatureExtractor/MobilenetV3/expanded_conv_2/depthwise/depthwise_bn_offset"], "attr": {"fused_ops": {"list": {"s": ["Qmlhc0FkZA==", "UmVsdQ=="]}}, "data_format": {"s": "TkhXQw=="}, "num_args": {"i": "1"}, "padding": {"s": "U0FNRQ=="}, "strides": {"list": {"i": ["1", "1", "1", "1"]}}, "T": {"type": "DT_FLOAT"}, "explicit_paddings": {"list": {}}, "dilations": {"list": {"i": ["1", "1", "1", "1"]}}}}, {"name": "FeatureExtractor/MobilenetV3/expanded_conv_2/project/BatchNorm/FusedBatchNormV3", "op": "_FusedConv2D", "input": ["FeatureExtractor/MobilenetV3/expanded_conv_2/depthwise/depthwise", "FeatureExtractor/MobilenetV3/expanded_conv_2/project/Conv2D_weights", "FeatureExtractor/MobilenetV3/expanded_conv_2/project/Conv2D_bn_offset"], "device": "/device:CPU:0", "attr": {"T": {"type": "DT_FLOAT"}, "strides": {"list": {"i": ["1", "1", "1", "1"]}}, "num_args": {"i": "1"}, "data_format": {"s": "TkhXQw=="}, "fused_ops": {"list": {"s": ["Qmlhc0FkZA=="]}}, "padding": {"s": "U0FNRQ=="}, "use_cudnn_on_gpu": {"b": true}, "epsilon": {"f": 0.0}, "explicit_paddings": {"list": {}}, "dilations": {"list": {"i": ["1", "1", "1", "1"]}}}}, {"name": "FeatureExtractor/MobilenetV3/expanded_conv_2/add", "op": "AddV2", "input": ["FeatureExtractor/MobilenetV3/expanded_conv_2/project/BatchNorm/FusedBatchNormV3", "FeatureExtractor/MobilenetV3/expanded_conv_1/project/BatchNorm/FusedBatchNormV3"], "attr": {"T": {"type": "DT_FLOAT"}}}, {"name": "FeatureExtractor/MobilenetV3/expanded_conv_3/expand/BatchNorm/FusedBatchNormV3", "op": "_FusedConv2D", "input": ["FeatureExtractor/MobilenetV3/expanded_conv_2/add", "FeatureExtractor/MobilenetV3/expanded_conv_3/expand/Conv2D_weights", "FeatureExtractor/MobilenetV3/expanded_conv_3/expand/Conv2D_bn_offset"], "device": "/device:CPU:0", "attr": {"strides": {"list": {"i": ["1", "1", "1", "1"]}}, "fused_ops": {"list": {"s": ["Qmlhc0FkZA=="]}}, "explicit_paddings": {"list": {}}, "data_format": {"s": "TkhXQw=="}, "num_args": {"i": "1"}, "T": {"type": "DT_FLOAT"}, "padding": {"s": "U0FNRQ=="}, "epsilon": {"f": 0.0}, "use_cudnn_on_gpu": {"b": true}, "dilations": {"list": {"i": ["1", "1", "1", "1"]}}}}, {"name": "FeatureExtractor/MobilenetV3/expanded_conv_3/expand/hard_swish/mul", "op": "Mul", "input": ["FeatureExtractor/MobilenetV3/expanded_conv_3/expand/hard_swish/mul_1/y", "FeatureExtractor/MobilenetV3/expanded_conv_3/expand/BatchNorm/FusedBatchNormV3"], "attr": {"_grappler_ArithmeticOptimizer_MinimizeBroadcasts": {"b": true}, "T": {"type": "DT_FLOAT"}}}, {"name": "FeatureExtractor/MobilenetV3/expanded_conv_3/expand/hard_swish/add", "op": "AddV2", "input": ["FeatureExtractor/MobilenetV3/expanded_conv_3/expand/BatchNorm/FusedBatchNormV3", "FeatureExtractor/MobilenetV3/expanded_conv_3/expand/hard_swish/add/y"], "attr": {"T": {"type": "DT_FLOAT"}}}, {"name": "FeatureExtractor/MobilenetV3/expanded_conv_3/expand/hard_swish/Relu6", "op": "Relu6", "input": ["FeatureExtractor/MobilenetV3/expanded_conv_3/expand/hard_swish/add"], "attr": {"T": {"type": "DT_FLOAT"}}}, {"name": "FeatureExtractor/MobilenetV3/expanded_conv_3/expand/hard_swish/mul_1", "op": "Mul", "input": ["FeatureExtractor/MobilenetV3/expanded_conv_3/expand/hard_swish/mul", "FeatureExtractor/MobilenetV3/expanded_conv_3/expand/hard_swish/Relu6"], "attr": {"_grappler_ArithmeticOptimizer_MinimizeBroadcasts": {"b": true}, "T": {"type": "DT_FLOAT"}}}, {"name": "FeatureExtractor/MobilenetV3/expanded_conv_3/depthwise/depthwise", "op": "FusedDepthwiseConv2dNative", "input": ["FeatureExtractor/MobilenetV3/expanded_conv_3/expand/hard_swish/mul_1", "FeatureExtractor/MobilenetV3/expanded_conv_3/depthwise/depthwise_weights", "FeatureExtractor/MobilenetV3/expanded_conv_3/depthwise/depthwise_bn_offset"], "attr": {"strides": {"list": {"i": ["1", "2", "2", "1"]}}, "T": {"type": "DT_FLOAT"}, "data_format": {"s": "TkhXQw=="}, "fused_ops": {"list": {"s": ["Qmlhc0FkZA=="]}}, "explicit_paddings": {"list": {}}, "num_args": {"i": "1"}, "padding": {"s": "U0FNRQ=="}, "dilations": {"list": {"i": ["1", "1", "1", "1"]}}}}, {"name": "FeatureExtractor/MobilenetV3/expanded_conv_3/depthwise/hard_swish/mul", "op": "Mul", "input": ["FeatureExtractor/MobilenetV3/expanded_conv_3/depthwise/hard_swish/mul_1/y", "FeatureExtractor/MobilenetV3/expanded_conv_3/depthwise/depthwise"], "attr": {"T": {"type": "DT_FLOAT"}, "_grappler_ArithmeticOptimizer_MinimizeBroadcasts": {"b": true}}}, {"name": "FeatureExtractor/MobilenetV3/expanded_conv_3/depthwise/hard_swish/add", "op": "AddV2", "input": ["FeatureExtractor/MobilenetV3/expanded_conv_3/depthwise/depthwise", "FeatureExtractor/MobilenetV3/expanded_conv_3/depthwise/hard_swish/add/y"], "attr": {"T": {"type": "DT_FLOAT"}}}, {"name": "FeatureExtractor/MobilenetV3/expanded_conv_3/depthwise/hard_swish/Relu6", "op": "Relu6", "input": ["FeatureExtractor/MobilenetV3/expanded_conv_3/depthwise/hard_swish/add"], "attr": {"T": {"type": "DT_FLOAT"}}}, {"name": "FeatureExtractor/MobilenetV3/expanded_conv_3/depthwise/hard_swish/mul_1", "op": "Mul", "input": ["FeatureExtractor/MobilenetV3/expanded_conv_3/depthwise/hard_swish/mul", "FeatureExtractor/MobilenetV3/expanded_conv_3/depthwise/hard_swish/Relu6"], "attr": {"T": {"type": "DT_FLOAT"}, "_grappler_ArithmeticOptimizer_MinimizeBroadcasts": {"b": true}}}, {"name": "FeatureExtractor/MobilenetV3/expanded_conv_3/squeeze_excite/Mean", "op": "Mean", "input": ["FeatureExtractor/MobilenetV3/expanded_conv_3/depthwise/hard_swish/mul_1", "FeatureExtractor/MobilenetV3/expanded_conv_3/squeeze_excite/Mean/reduction_indices"], "attr": {"T": {"type": "DT_FLOAT"}, "Tidx": {"type": "DT_INT32"}, "keep_dims": {"b": true}}}, {"name": "FeatureExtractor/MobilenetV3/expanded_conv_3/squeeze_excite/Conv/Relu", "op": "_FusedConv2D", "input": ["FeatureExtractor/MobilenetV3/expanded_conv_3/squeeze_excite/Mean", "FeatureExtractor/MobilenetV3/expanded_conv_3/squeeze_excite/Conv/weights", "FeatureExtractor/MobilenetV3/expanded_conv_3/squeeze_excite/Conv/biases"], "device": "/device:CPU:0", "attr": {"dilations": {"list": {"i": ["1", "1", "1", "1"]}}, "T": {"type": "DT_FLOAT"}, "data_format": {"s": "TkhXQw=="}, "use_cudnn_on_gpu": {"b": true}, "epsilon": {"f": 0.0}, "strides": {"list": {"i": ["1", "1", "1", "1"]}}, "padding": {"s": "U0FNRQ=="}, "fused_ops": {"list": {"s": ["Qmlhc0FkZA==", "UmVsdQ=="]}}, "explicit_paddings": {"list": {}}, "num_args": {"i": "1"}}}, {"name": "FeatureExtractor/MobilenetV3/expanded_conv_3/squeeze_excite/Conv_1/BiasAdd", "op": "_FusedConv2D", "input": ["FeatureExtractor/MobilenetV3/expanded_conv_3/squeeze_excite/Conv/Relu", "FeatureExtractor/MobilenetV3/expanded_conv_3/squeeze_excite/Conv_1/weights", "FeatureExtractor/MobilenetV3/expanded_conv_3/squeeze_excite/Conv_1/biases"], "device": "/device:CPU:0", "attr": {"data_format": {"s": "TkhXQw=="}, "epsilon": {"f": 0.0}, "padding": {"s": "U0FNRQ=="}, "T": {"type": "DT_FLOAT"}, "num_args": {"i": "1"}, "fused_ops": {"list": {"s": ["Qmlhc0FkZA=="]}}, "strides": {"list": {"i": ["1", "1", "1", "1"]}}, "explicit_paddings": {"list": {}}, "dilations": {"list": {"i": ["1", "1", "1", "1"]}}, "use_cudnn_on_gpu": {"b": true}}}, {"name": "FeatureExtractor/MobilenetV3/expanded_conv_3/squeeze_excite/Conv_1/add", "op": "AddV2", "input": ["FeatureExtractor/MobilenetV3/expanded_conv_3/squeeze_excite/Conv_1/BiasAdd", "FeatureExtractor/MobilenetV3/expanded_conv_3/squeeze_excite/Conv_1/add/y"], "attr": {"T": {"type": "DT_FLOAT"}}}, {"name": "FeatureExtractor/MobilenetV3/expanded_conv_3/squeeze_excite/Conv_1/Relu6", "op": "Relu6", "input": ["FeatureExtractor/MobilenetV3/expanded_conv_3/squeeze_excite/Conv_1/add"], "attr": {"T": {"type": "DT_FLOAT"}}}, {"name": "FeatureExtractor/MobilenetV3/expanded_conv_3/squeeze_excite/Conv_1/mul", "op": "Mul", "input": ["FeatureExtractor/MobilenetV3/expanded_conv_3/squeeze_excite/Conv_1/mul/y", "FeatureExtractor/MobilenetV3/expanded_conv_3/squeeze_excite/Conv_1/Relu6"], "attr": {"_grappler_ArithmeticOptimizer_MinimizeBroadcasts": {"b": true}, "T": {"type": "DT_FLOAT"}}}, {"name": "FeatureExtractor/MobilenetV3/expanded_conv_3/squeeze_excite/mul", "op": "Mul", "input": ["FeatureExtractor/MobilenetV3/expanded_conv_3/squeeze_excite/Conv_1/mul", "FeatureExtractor/MobilenetV3/expanded_conv_3/depthwise/hard_swish/mul_1"], "attr": {"_grappler_ArithmeticOptimizer_MinimizeBroadcasts": {"b": true}, "T": {"type": "DT_FLOAT"}}}, {"name": "FeatureExtractor/MobilenetV3/expanded_conv_3/project/BatchNorm/FusedBatchNormV3", "op": "_FusedConv2D", "input": ["FeatureExtractor/MobilenetV3/expanded_conv_3/squeeze_excite/mul", "FeatureExtractor/MobilenetV3/expanded_conv_3/project/Conv2D_weights", "FeatureExtractor/MobilenetV3/expanded_conv_3/project/Conv2D_bn_offset"], "device": "/device:CPU:0", "attr": {"padding": {"s": "U0FNRQ=="}, "dilations": {"list": {"i": ["1", "1", "1", "1"]}}, "epsilon": {"f": 0.0}, "data_format": {"s": "TkhXQw=="}, "strides": {"list": {"i": ["1", "1", "1", "1"]}}, "explicit_paddings": {"list": {}}, "T": {"type": "DT_FLOAT"}, "fused_ops": {"list": {"s": ["Qmlhc0FkZA=="]}}, "use_cudnn_on_gpu": {"b": true}, "num_args": {"i": "1"}}}, {"name": "FeatureExtractor/MobilenetV3/expanded_conv_4/expand/BatchNorm/FusedBatchNormV3", "op": "_FusedConv2D", "input": ["FeatureExtractor/MobilenetV3/expanded_conv_3/project/BatchNorm/FusedBatchNormV3", "FeatureExtractor/MobilenetV3/expanded_conv_4/expand/Conv2D_weights", "FeatureExtractor/MobilenetV3/expanded_conv_4/expand/Conv2D_bn_offset"], "device": "/device:CPU:0", "attr": {"T": {"type": "DT_FLOAT"}, "num_args": {"i": "1"}, "use_cudnn_on_gpu": {"b": true}, "epsilon": {"f": 0.0}, "explicit_paddings": {"list": {}}, "strides": {"list": {"i": ["1", "1", "1", "1"]}}, "padding": {"s": "U0FNRQ=="}, "fused_ops": {"list": {"s": ["Qmlhc0FkZA=="]}}, "dilations": {"list": {"i": ["1", "1", "1", "1"]}}, "data_format": {"s": "TkhXQw=="}}}, {"name": "FeatureExtractor/MobilenetV3/expanded_conv_4/expand/hard_swish/mul", "op": "Mul", "input": ["FeatureExtractor/MobilenetV3/expanded_conv_4/expand/hard_swish/mul_1/y", "FeatureExtractor/MobilenetV3/expanded_conv_4/expand/BatchNorm/FusedBatchNormV3"], "attr": {"_grappler_ArithmeticOptimizer_MinimizeBroadcasts": {"b": true}, "T": {"type": "DT_FLOAT"}}}, {"name": "FeatureExtractor/MobilenetV3/expanded_conv_4/expand/hard_swish/add", "op": "AddV2", "input": ["FeatureExtractor/MobilenetV3/expanded_conv_4/expand/BatchNorm/FusedBatchNormV3", "FeatureExtractor/MobilenetV3/expanded_conv_4/expand/hard_swish/add/y"], "attr": {"T": {"type": "DT_FLOAT"}}}, {"name": "FeatureExtractor/MobilenetV3/expanded_conv_4/expand/hard_swish/Relu6", "op": "Relu6", "input": ["FeatureExtractor/MobilenetV3/expanded_conv_4/expand/hard_swish/add"], "attr": {"T": {"type": "DT_FLOAT"}}}, {"name": "FeatureExtractor/MobilenetV3/expanded_conv_4/expand/hard_swish/mul_1", "op": "Mul", "input": ["FeatureExtractor/MobilenetV3/expanded_conv_4/expand/hard_swish/mul", "FeatureExtractor/MobilenetV3/expanded_conv_4/expand/hard_swish/Relu6"], "attr": {"_grappler_ArithmeticOptimizer_MinimizeBroadcasts": {"b": true}, "T": {"type": "DT_FLOAT"}}}, {"name": "FeatureExtractor/MobilenetV3/expanded_conv_4/depthwise/depthwise", "op": "FusedDepthwiseConv2dNative", "input": ["FeatureExtractor/MobilenetV3/expanded_conv_4/expand/hard_swish/mul_1", "FeatureExtractor/MobilenetV3/expanded_conv_4/depthwise/depthwise_weights", "FeatureExtractor/MobilenetV3/expanded_conv_4/depthwise/depthwise_bn_offset"], "attr": {"strides": {"list": {"i": ["1", "1", "1", "1"]}}, "explicit_paddings": {"list": {}}, "padding": {"s": "U0FNRQ=="}, "T": {"type": "DT_FLOAT"}, "num_args": {"i": "1"}, "data_format": {"s": "TkhXQw=="}, "dilations": {"list": {"i": ["1", "1", "1", "1"]}}, "fused_ops": {"list": {"s": ["Qmlhc0FkZA=="]}}}}, {"name": "FeatureExtractor/MobilenetV3/expanded_conv_4/depthwise/hard_swish/mul", "op": "Mul", "input": ["FeatureExtractor/MobilenetV3/expanded_conv_4/depthwise/hard_swish/mul_1/y", "FeatureExtractor/MobilenetV3/expanded_conv_4/depthwise/depthwise"], "attr": {"T": {"type": "DT_FLOAT"}, "_grappler_ArithmeticOptimizer_MinimizeBroadcasts": {"b": true}}}, {"name": "FeatureExtractor/MobilenetV3/expanded_conv_4/depthwise/hard_swish/add", "op": "AddV2", "input": ["FeatureExtractor/MobilenetV3/expanded_conv_4/depthwise/depthwise", "FeatureExtractor/MobilenetV3/expanded_conv_4/depthwise/hard_swish/add/y"], "attr": {"T": {"type": "DT_FLOAT"}}}, {"name": "FeatureExtractor/MobilenetV3/expanded_conv_4/depthwise/hard_swish/Relu6", "op": "Relu6", "input": ["FeatureExtractor/MobilenetV3/expanded_conv_4/depthwise/hard_swish/add"], "attr": {"T": {"type": "DT_FLOAT"}}}, {"name": "FeatureExtractor/MobilenetV3/expanded_conv_4/depthwise/hard_swish/mul_1", "op": "Mul", "input": ["FeatureExtractor/MobilenetV3/expanded_conv_4/depthwise/hard_swish/mul", "FeatureExtractor/MobilenetV3/expanded_conv_4/depthwise/hard_swish/Relu6"], "attr": {"T": {"type": "DT_FLOAT"}, "_grappler_ArithmeticOptimizer_MinimizeBroadcasts": {"b": true}}}, {"name": "FeatureExtractor/MobilenetV3/expanded_conv_4/squeeze_excite/Mean", "op": "Mean", "input": ["FeatureExtractor/MobilenetV3/expanded_conv_4/depthwise/hard_swish/mul_1", "FeatureExtractor/MobilenetV3/expanded_conv_4/squeeze_excite/Mean/reduction_indices"], "attr": {"keep_dims": {"b": true}, "Tidx": {"type": "DT_INT32"}, "T": {"type": "DT_FLOAT"}}}, {"name": "FeatureExtractor/MobilenetV3/expanded_conv_4/squeeze_excite/Conv/Relu", "op": "_FusedConv2D", "input": ["FeatureExtractor/MobilenetV3/expanded_conv_4/squeeze_excite/Mean", "FeatureExtractor/MobilenetV3/expanded_conv_4/squeeze_excite/Conv/weights", "FeatureExtractor/MobilenetV3/expanded_conv_4/squeeze_excite/Conv/biases"], "device": "/device:CPU:0", "attr": {"num_args": {"i": "1"}, "explicit_paddings": {"list": {}}, "epsilon": {"f": 0.0}, "use_cudnn_on_gpu": {"b": true}, "fused_ops": {"list": {"s": ["Qmlhc0FkZA==", "UmVsdQ=="]}}, "dilations": {"list": {"i": ["1", "1", "1", "1"]}}, "T": {"type": "DT_FLOAT"}, "data_format": {"s": "TkhXQw=="}, "padding": {"s": "U0FNRQ=="}, "strides": {"list": {"i": ["1", "1", "1", "1"]}}}}, {"name": "FeatureExtractor/MobilenetV3/expanded_conv_4/squeeze_excite/Conv_1/BiasAdd", "op": "_FusedConv2D", "input": ["FeatureExtractor/MobilenetV3/expanded_conv_4/squeeze_excite/Conv/Relu", "FeatureExtractor/MobilenetV3/expanded_conv_4/squeeze_excite/Conv_1/weights", "FeatureExtractor/MobilenetV3/expanded_conv_4/squeeze_excite/Conv_1/biases"], "device": "/device:CPU:0", "attr": {"T": {"type": "DT_FLOAT"}, "epsilon": {"f": 0.0}, "use_cudnn_on_gpu": {"b": true}, "fused_ops": {"list": {"s": ["Qmlhc0FkZA=="]}}, "strides": {"list": {"i": ["1", "1", "1", "1"]}}, "dilations": {"list": {"i": ["1", "1", "1", "1"]}}, "num_args": {"i": "1"}, "data_format": {"s": "TkhXQw=="}, "explicit_paddings": {"list": {}}, "padding": {"s": "U0FNRQ=="}}}, {"name": "FeatureExtractor/MobilenetV3/expanded_conv_4/squeeze_excite/Conv_1/add", "op": "AddV2", "input": ["FeatureExtractor/MobilenetV3/expanded_conv_4/squeeze_excite/Conv_1/BiasAdd", "FeatureExtractor/MobilenetV3/expanded_conv_4/squeeze_excite/Conv_1/add/y"], "attr": {"T": {"type": "DT_FLOAT"}}}, {"name": "FeatureExtractor/MobilenetV3/expanded_conv_4/squeeze_excite/Conv_1/Relu6", "op": "Relu6", "input": ["FeatureExtractor/MobilenetV3/expanded_conv_4/squeeze_excite/Conv_1/add"], "attr": {"T": {"type": "DT_FLOAT"}}}, {"name": "FeatureExtractor/MobilenetV3/expanded_conv_4/squeeze_excite/Conv_1/mul", "op": "Mul", "input": ["FeatureExtractor/MobilenetV3/expanded_conv_4/squeeze_excite/Conv_1/mul/y", "FeatureExtractor/MobilenetV3/expanded_conv_4/squeeze_excite/Conv_1/Relu6"], "attr": {"T": {"type": "DT_FLOAT"}, "_grappler_ArithmeticOptimizer_MinimizeBroadcasts": {"b": true}}}, {"name": "FeatureExtractor/MobilenetV3/expanded_conv_4/squeeze_excite/mul", "op": "Mul", "input": ["FeatureExtractor/MobilenetV3/expanded_conv_4/squeeze_excite/Conv_1/mul", "FeatureExtractor/MobilenetV3/expanded_conv_4/depthwise/hard_swish/mul_1"], "attr": {"_grappler_ArithmeticOptimizer_MinimizeBroadcasts": {"b": true}, "T": {"type": "DT_FLOAT"}}}, {"name": "FeatureExtractor/MobilenetV3/expanded_conv_4/project/BatchNorm/FusedBatchNormV3", "op": "_FusedConv2D", "input": ["FeatureExtractor/MobilenetV3/expanded_conv_4/squeeze_excite/mul", "FeatureExtractor/MobilenetV3/expanded_conv_4/project/Conv2D_weights", "FeatureExtractor/MobilenetV3/expanded_conv_4/project/Conv2D_bn_offset"], "device": "/device:CPU:0", "attr": {"dilations": {"list": {"i": ["1", "1", "1", "1"]}}, "epsilon": {"f": 0.0}, "num_args": {"i": "1"}, "padding": {"s": "U0FNRQ=="}, "strides": {"list": {"i": ["1", "1", "1", "1"]}}, "use_cudnn_on_gpu": {"b": true}, "explicit_paddings": {"list": {}}, "T": {"type": "DT_FLOAT"}, "fused_ops": {"list": {"s": ["Qmlhc0FkZA=="]}}, "data_format": {"s": "TkhXQw=="}}}, {"name": "FeatureExtractor/MobilenetV3/expanded_conv_4/add", "op": "AddV2", "input": ["FeatureExtractor/MobilenetV3/expanded_conv_4/project/BatchNorm/FusedBatchNormV3", "FeatureExtractor/MobilenetV3/expanded_conv_3/project/BatchNorm/FusedBatchNormV3"], "attr": {"T": {"type": "DT_FLOAT"}}}, {"name": "FeatureExtractor/MobilenetV3/expanded_conv_5/expand/BatchNorm/FusedBatchNormV3", "op": "_FusedConv2D", "input": ["FeatureExtractor/MobilenetV3/expanded_conv_4/add", "FeatureExtractor/MobilenetV3/expanded_conv_5/expand/Conv2D_weights", "FeatureExtractor/MobilenetV3/expanded_conv_5/expand/Conv2D_bn_offset"], "device": "/device:CPU:0", "attr": {"padding": {"s": "U0FNRQ=="}, "dilations": {"list": {"i": ["1", "1", "1", "1"]}}, "fused_ops": {"list": {"s": ["Qmlhc0FkZA=="]}}, "data_format": {"s": "TkhXQw=="}, "use_cudnn_on_gpu": {"b": true}, "strides": {"list": {"i": ["1", "1", "1", "1"]}}, "explicit_paddings": {"list": {}}, "num_args": {"i": "1"}, "T": {"type": "DT_FLOAT"}, "epsilon": {"f": 0.0}}}, {"name": "FeatureExtractor/MobilenetV3/expanded_conv_5/expand/hard_swish/mul", "op": "Mul", "input": ["FeatureExtractor/MobilenetV3/expanded_conv_5/expand/hard_swish/mul_1/y", "FeatureExtractor/MobilenetV3/expanded_conv_5/expand/BatchNorm/FusedBatchNormV3"], "attr": {"_grappler_ArithmeticOptimizer_MinimizeBroadcasts": {"b": true}, "T": {"type": "DT_FLOAT"}}}, {"name": "FeatureExtractor/MobilenetV3/expanded_conv_5/expand/hard_swish/add", "op": "AddV2", "input": ["FeatureExtractor/MobilenetV3/expanded_conv_5/expand/BatchNorm/FusedBatchNormV3", "FeatureExtractor/MobilenetV3/expanded_conv_5/expand/hard_swish/add/y"], "attr": {"T": {"type": "DT_FLOAT"}}}, {"name": "FeatureExtractor/MobilenetV3/expanded_conv_5/expand/hard_swish/Relu6", "op": "Relu6", "input": ["FeatureExtractor/MobilenetV3/expanded_conv_5/expand/hard_swish/add"], "attr": {"T": {"type": "DT_FLOAT"}}}, {"name": "FeatureExtractor/MobilenetV3/expanded_conv_5/expand/hard_swish/mul_1", "op": "Mul", "input": ["FeatureExtractor/MobilenetV3/expanded_conv_5/expand/hard_swish/mul", "FeatureExtractor/MobilenetV3/expanded_conv_5/expand/hard_swish/Relu6"], "attr": {"_grappler_ArithmeticOptimizer_MinimizeBroadcasts": {"b": true}, "T": {"type": "DT_FLOAT"}}}, {"name": "FeatureExtractor/MobilenetV3/expanded_conv_5/depthwise/depthwise", "op": "FusedDepthwiseConv2dNative", "input": ["FeatureExtractor/MobilenetV3/expanded_conv_5/expand/hard_swish/mul_1", "FeatureExtractor/MobilenetV3/expanded_conv_5/depthwise/depthwise_weights", "FeatureExtractor/MobilenetV3/expanded_conv_5/depthwise/depthwise_bn_offset"], "attr": {"data_format": {"s": "TkhXQw=="}, "explicit_paddings": {"list": {}}, "num_args": {"i": "1"}, "T": {"type": "DT_FLOAT"}, "dilations": {"list": {"i": ["1", "1", "1", "1"]}}, "padding": {"s": "U0FNRQ=="}, "strides": {"list": {"i": ["1", "1", "1", "1"]}}, "fused_ops": {"list": {"s": ["Qmlhc0FkZA=="]}}}}, {"name": "FeatureExtractor/MobilenetV3/expanded_conv_5/depthwise/hard_swish/mul", "op": "Mul", "input": ["FeatureExtractor/MobilenetV3/expanded_conv_5/depthwise/hard_swish/mul_1/y", "FeatureExtractor/MobilenetV3/expanded_conv_5/depthwise/depthwise"], "attr": {"_grappler_ArithmeticOptimizer_MinimizeBroadcasts": {"b": true}, "T": {"type": "DT_FLOAT"}}}, {"name": "FeatureExtractor/MobilenetV3/expanded_conv_5/depthwise/hard_swish/add", "op": "AddV2", "input": ["FeatureExtractor/MobilenetV3/expanded_conv_5/depthwise/depthwise", "FeatureExtractor/MobilenetV3/expanded_conv_5/depthwise/hard_swish/add/y"], "attr": {"T": {"type": "DT_FLOAT"}}}, {"name": "FeatureExtractor/MobilenetV3/expanded_conv_5/depthwise/hard_swish/Relu6", "op": "Relu6", "input": ["FeatureExtractor/MobilenetV3/expanded_conv_5/depthwise/hard_swish/add"], "attr": {"T": {"type": "DT_FLOAT"}}}, {"name": "FeatureExtractor/MobilenetV3/expanded_conv_5/depthwise/hard_swish/mul_1", "op": "Mul", "input": ["FeatureExtractor/MobilenetV3/expanded_conv_5/depthwise/hard_swish/mul", "FeatureExtractor/MobilenetV3/expanded_conv_5/depthwise/hard_swish/Relu6"], "attr": {"T": {"type": "DT_FLOAT"}, "_grappler_ArithmeticOptimizer_MinimizeBroadcasts": {"b": true}}}, {"name": "FeatureExtractor/MobilenetV3/expanded_conv_5/squeeze_excite/Mean", "op": "Mean", "input": ["FeatureExtractor/MobilenetV3/expanded_conv_5/depthwise/hard_swish/mul_1", "FeatureExtractor/MobilenetV3/expanded_conv_5/squeeze_excite/Mean/reduction_indices"], "attr": {"T": {"type": "DT_FLOAT"}, "keep_dims": {"b": true}, "Tidx": {"type": "DT_INT32"}}}, {"name": "FeatureExtractor/MobilenetV3/expanded_conv_5/squeeze_excite/Conv/Relu", "op": "_FusedConv2D", "input": ["FeatureExtractor/MobilenetV3/expanded_conv_5/squeeze_excite/Mean", "FeatureExtractor/MobilenetV3/expanded_conv_5/squeeze_excite/Conv/weights", "FeatureExtractor/MobilenetV3/expanded_conv_5/squeeze_excite/Conv/biases"], "device": "/device:CPU:0", "attr": {"padding": {"s": "U0FNRQ=="}, "use_cudnn_on_gpu": {"b": true}, "epsilon": {"f": 0.0}, "dilations": {"list": {"i": ["1", "1", "1", "1"]}}, "data_format": {"s": "TkhXQw=="}, "num_args": {"i": "1"}, "explicit_paddings": {"list": {}}, "fused_ops": {"list": {"s": ["Qmlhc0FkZA==", "UmVsdQ=="]}}, "T": {"type": "DT_FLOAT"}, "strides": {"list": {"i": ["1", "1", "1", "1"]}}}}, {"name": "FeatureExtractor/MobilenetV3/expanded_conv_5/squeeze_excite/Conv_1/BiasAdd", "op": "_FusedConv2D", "input": ["FeatureExtractor/MobilenetV3/expanded_conv_5/squeeze_excite/Conv/Relu", "FeatureExtractor/MobilenetV3/expanded_conv_5/squeeze_excite/Conv_1/weights", "FeatureExtractor/MobilenetV3/expanded_conv_5/squeeze_excite/Conv_1/biases"], "device": "/device:CPU:0", "attr": {"epsilon": {"f": 0.0}, "explicit_paddings": {"list": {}}, "padding": {"s": "U0FNRQ=="}, "T": {"type": "DT_FLOAT"}, "dilations": {"list": {"i": ["1", "1", "1", "1"]}}, "num_args": {"i": "1"}, "fused_ops": {"list": {"s": ["Qmlhc0FkZA=="]}}, "strides": {"list": {"i": ["1", "1", "1", "1"]}}, "data_format": {"s": "TkhXQw=="}, "use_cudnn_on_gpu": {"b": true}}}, {"name": "FeatureExtractor/MobilenetV3/expanded_conv_5/squeeze_excite/Conv_1/add", "op": "AddV2", "input": ["FeatureExtractor/MobilenetV3/expanded_conv_5/squeeze_excite/Conv_1/BiasAdd", "FeatureExtractor/MobilenetV3/expanded_conv_5/squeeze_excite/Conv_1/add/y"], "attr": {"T": {"type": "DT_FLOAT"}}}, {"name": "FeatureExtractor/MobilenetV3/expanded_conv_5/squeeze_excite/Conv_1/Relu6", "op": "Relu6", "input": ["FeatureExtractor/MobilenetV3/expanded_conv_5/squeeze_excite/Conv_1/add"], "attr": {"T": {"type": "DT_FLOAT"}}}, {"name": "FeatureExtractor/MobilenetV3/expanded_conv_5/squeeze_excite/Conv_1/mul", "op": "Mul", "input": ["FeatureExtractor/MobilenetV3/expanded_conv_5/squeeze_excite/Conv_1/mul/y", "FeatureExtractor/MobilenetV3/expanded_conv_5/squeeze_excite/Conv_1/Relu6"], "attr": {"_grappler_ArithmeticOptimizer_MinimizeBroadcasts": {"b": true}, "T": {"type": "DT_FLOAT"}}}, {"name": "FeatureExtractor/MobilenetV3/expanded_conv_5/squeeze_excite/mul", "op": "Mul", "input": ["FeatureExtractor/MobilenetV3/expanded_conv_5/squeeze_excite/Conv_1/mul", "FeatureExtractor/MobilenetV3/expanded_conv_5/depthwise/hard_swish/mul_1"], "attr": {"T": {"type": "DT_FLOAT"}, "_grappler_ArithmeticOptimizer_MinimizeBroadcasts": {"b": true}}}, {"name": "FeatureExtractor/MobilenetV3/expanded_conv_5/project/BatchNorm/FusedBatchNormV3", "op": "_FusedConv2D", "input": ["FeatureExtractor/MobilenetV3/expanded_conv_5/squeeze_excite/mul", "FeatureExtractor/MobilenetV3/expanded_conv_5/project/Conv2D_weights", "FeatureExtractor/MobilenetV3/expanded_conv_5/project/Conv2D_bn_offset"], "device": "/device:CPU:0", "attr": {"use_cudnn_on_gpu": {"b": true}, "T": {"type": "DT_FLOAT"}, "dilations": {"list": {"i": ["1", "1", "1", "1"]}}, "padding": {"s": "U0FNRQ=="}, "epsilon": {"f": 0.0}, "explicit_paddings": {"list": {}}, "strides": {"list": {"i": ["1", "1", "1", "1"]}}, "num_args": {"i": "1"}, "fused_ops": {"list": {"s": ["Qmlhc0FkZA=="]}}, "data_format": {"s": "TkhXQw=="}}}, {"name": "FeatureExtractor/MobilenetV3/expanded_conv_5/add", "op": "AddV2", "input": ["FeatureExtractor/MobilenetV3/expanded_conv_5/project/BatchNorm/FusedBatchNormV3", "FeatureExtractor/MobilenetV3/expanded_conv_4/add"], "attr": {"T": {"type": "DT_FLOAT"}}}, {"name": "FeatureExtractor/MobilenetV3/expanded_conv_6/expand/BatchNorm/FusedBatchNormV3", "op": "_FusedConv2D", "input": ["FeatureExtractor/MobilenetV3/expanded_conv_5/add", "FeatureExtractor/MobilenetV3/expanded_conv_6/expand/Conv2D_weights", "FeatureExtractor/MobilenetV3/expanded_conv_6/expand/Conv2D_bn_offset"], "device": "/device:CPU:0", "attr": {"padding": {"s": "U0FNRQ=="}, "data_format": {"s": "TkhXQw=="}, "fused_ops": {"list": {"s": ["Qmlhc0FkZA=="]}}, "T": {"type": "DT_FLOAT"}, "dilations": {"list": {"i": ["1", "1", "1", "1"]}}, "use_cudnn_on_gpu": {"b": true}, "explicit_paddings": {"list": {}}, "num_args": {"i": "1"}, "epsilon": {"f": 0.0}, "strides": {"list": {"i": ["1", "1", "1", "1"]}}}}, {"name": "FeatureExtractor/MobilenetV3/expanded_conv_6/expand/hard_swish/mul", "op": "Mul", "input": ["FeatureExtractor/MobilenetV3/expanded_conv_6/expand/hard_swish/mul_1/y", "FeatureExtractor/MobilenetV3/expanded_conv_6/expand/BatchNorm/FusedBatchNormV3"], "attr": {"T": {"type": "DT_FLOAT"}, "_grappler_ArithmeticOptimizer_MinimizeBroadcasts": {"b": true}}}, {"name": "FeatureExtractor/MobilenetV3/expanded_conv_6/expand/hard_swish/add", "op": "AddV2", "input": ["FeatureExtractor/MobilenetV3/expanded_conv_6/expand/BatchNorm/FusedBatchNormV3", "FeatureExtractor/MobilenetV3/expanded_conv_6/expand/hard_swish/add/y"], "attr": {"T": {"type": "DT_FLOAT"}}}, {"name": "FeatureExtractor/MobilenetV3/expanded_conv_6/expand/hard_swish/Relu6", "op": "Relu6", "input": ["FeatureExtractor/MobilenetV3/expanded_conv_6/expand/hard_swish/add"], "attr": {"T": {"type": "DT_FLOAT"}}}, {"name": "FeatureExtractor/MobilenetV3/expanded_conv_6/expand/hard_swish/mul_1", "op": "Mul", "input": ["FeatureExtractor/MobilenetV3/expanded_conv_6/expand/hard_swish/mul", "FeatureExtractor/MobilenetV3/expanded_conv_6/expand/hard_swish/Relu6"], "attr": {"_grappler_ArithmeticOptimizer_MinimizeBroadcasts": {"b": true}, "T": {"type": "DT_FLOAT"}}}, {"name": "FeatureExtractor/MobilenetV3/expanded_conv_6/depthwise/depthwise", "op": "FusedDepthwiseConv2dNative", "input": ["FeatureExtractor/MobilenetV3/expanded_conv_6/expand/hard_swish/mul_1", "FeatureExtractor/MobilenetV3/expanded_conv_6/depthwise/depthwise_weights", "FeatureExtractor/MobilenetV3/expanded_conv_6/depthwise/depthwise_bn_offset"], "attr": {"data_format": {"s": "TkhXQw=="}, "num_args": {"i": "1"}, "dilations": {"list": {"i": ["1", "1", "1", "1"]}}, "fused_ops": {"list": {"s": ["Qmlhc0FkZA=="]}}, "explicit_paddings": {"list": {}}, "strides": {"list": {"i": ["1", "1", "1", "1"]}}, "T": {"type": "DT_FLOAT"}, "padding": {"s": "U0FNRQ=="}}}, {"name": "FeatureExtractor/MobilenetV3/expanded_conv_6/depthwise/hard_swish/mul", "op": "Mul", "input": ["FeatureExtractor/MobilenetV3/expanded_conv_6/depthwise/hard_swish/mul_1/y", "FeatureExtractor/MobilenetV3/expanded_conv_6/depthwise/depthwise"], "attr": {"T": {"type": "DT_FLOAT"}, "_grappler_ArithmeticOptimizer_MinimizeBroadcasts": {"b": true}}}, {"name": "FeatureExtractor/MobilenetV3/expanded_conv_6/depthwise/hard_swish/add", "op": "AddV2", "input": ["FeatureExtractor/MobilenetV3/expanded_conv_6/depthwise/depthwise", "FeatureExtractor/MobilenetV3/expanded_conv_6/depthwise/hard_swish/add/y"], "attr": {"T": {"type": "DT_FLOAT"}}}, {"name": "FeatureExtractor/MobilenetV3/expanded_conv_6/depthwise/hard_swish/Relu6", "op": "Relu6", "input": ["FeatureExtractor/MobilenetV3/expanded_conv_6/depthwise/hard_swish/add"], "attr": {"T": {"type": "DT_FLOAT"}}}, {"name": "FeatureExtractor/MobilenetV3/expanded_conv_6/depthwise/hard_swish/mul_1", "op": "Mul", "input": ["FeatureExtractor/MobilenetV3/expanded_conv_6/depthwise/hard_swish/mul", "FeatureExtractor/MobilenetV3/expanded_conv_6/depthwise/hard_swish/Relu6"], "attr": {"T": {"type": "DT_FLOAT"}, "_grappler_ArithmeticOptimizer_MinimizeBroadcasts": {"b": true}}}, {"name": "FeatureExtractor/MobilenetV3/expanded_conv_6/squeeze_excite/Mean", "op": "Mean", "input": ["FeatureExtractor/MobilenetV3/expanded_conv_6/depthwise/hard_swish/mul_1", "FeatureExtractor/MobilenetV3/expanded_conv_6/squeeze_excite/Mean/reduction_indices"], "attr": {"Tidx": {"type": "DT_INT32"}, "T": {"type": "DT_FLOAT"}, "keep_dims": {"b": true}}}, {"name": "FeatureExtractor/MobilenetV3/expanded_conv_6/squeeze_excite/Conv/Relu", "op": "_FusedConv2D", "input": ["FeatureExtractor/MobilenetV3/expanded_conv_6/squeeze_excite/Mean", "FeatureExtractor/MobilenetV3/expanded_conv_6/squeeze_excite/Conv/weights", "FeatureExtractor/MobilenetV3/expanded_conv_6/squeeze_excite/Conv/biases"], "device": "/device:CPU:0", "attr": {"explicit_paddings": {"list": {}}, "dilations": {"list": {"i": ["1", "1", "1", "1"]}}, "use_cudnn_on_gpu": {"b": true}, "strides": {"list": {"i": ["1", "1", "1", "1"]}}, "T": {"type": "DT_FLOAT"}, "padding": {"s": "U0FNRQ=="}, "num_args": {"i": "1"}, "data_format": {"s": "TkhXQw=="}, "fused_ops": {"list": {"s": ["Qmlhc0FkZA==", "UmVsdQ=="]}}, "epsilon": {"f": 0.0}}}, {"name": "FeatureExtractor/MobilenetV3/expanded_conv_6/squeeze_excite/Conv_1/BiasAdd", "op": "_FusedConv2D", "input": ["FeatureExtractor/MobilenetV3/expanded_conv_6/squeeze_excite/Conv/Relu", "FeatureExtractor/MobilenetV3/expanded_conv_6/squeeze_excite/Conv_1/weights", "FeatureExtractor/MobilenetV3/expanded_conv_6/squeeze_excite/Conv_1/biases"], "device": "/device:CPU:0", "attr": {"data_format": {"s": "TkhXQw=="}, "T": {"type": "DT_FLOAT"}, "strides": {"list": {"i": ["1", "1", "1", "1"]}}, "explicit_paddings": {"list": {}}, "fused_ops": {"list": {"s": ["Qmlhc0FkZA=="]}}, "dilations": {"list": {"i": ["1", "1", "1", "1"]}}, "use_cudnn_on_gpu": {"b": true}, "num_args": {"i": "1"}, "padding": {"s": "U0FNRQ=="}, "epsilon": {"f": 0.0}}}, {"name": "FeatureExtractor/MobilenetV3/expanded_conv_6/squeeze_excite/Conv_1/add", "op": "AddV2", "input": ["FeatureExtractor/MobilenetV3/expanded_conv_6/squeeze_excite/Conv_1/BiasAdd", "FeatureExtractor/MobilenetV3/expanded_conv_6/squeeze_excite/Conv_1/add/y"], "attr": {"T": {"type": "DT_FLOAT"}}}, {"name": "FeatureExtractor/MobilenetV3/expanded_conv_6/squeeze_excite/Conv_1/Relu6", "op": "Relu6", "input": ["FeatureExtractor/MobilenetV3/expanded_conv_6/squeeze_excite/Conv_1/add"], "attr": {"T": {"type": "DT_FLOAT"}}}, {"name": "FeatureExtractor/MobilenetV3/expanded_conv_6/squeeze_excite/Conv_1/mul", "op": "Mul", "input": ["FeatureExtractor/MobilenetV3/expanded_conv_6/squeeze_excite/Conv_1/mul/y", "FeatureExtractor/MobilenetV3/expanded_conv_6/squeeze_excite/Conv_1/Relu6"], "attr": {"_grappler_ArithmeticOptimizer_MinimizeBroadcasts": {"b": true}, "T": {"type": "DT_FLOAT"}}}, {"name": "FeatureExtractor/MobilenetV3/expanded_conv_6/squeeze_excite/mul", "op": "Mul", "input": ["FeatureExtractor/MobilenetV3/expanded_conv_6/squeeze_excite/Conv_1/mul", "FeatureExtractor/MobilenetV3/expanded_conv_6/depthwise/hard_swish/mul_1"], "attr": {"T": {"type": "DT_FLOAT"}, "_grappler_ArithmeticOptimizer_MinimizeBroadcasts": {"b": true}}}, {"name": "FeatureExtractor/MobilenetV3/expanded_conv_6/project/BatchNorm/FusedBatchNormV3", "op": "_FusedConv2D", "input": ["FeatureExtractor/MobilenetV3/expanded_conv_6/squeeze_excite/mul", "FeatureExtractor/MobilenetV3/expanded_conv_6/project/Conv2D_weights", "FeatureExtractor/MobilenetV3/expanded_conv_6/project/Conv2D_bn_offset"], "device": "/device:CPU:0", "attr": {"padding": {"s": "U0FNRQ=="}, "num_args": {"i": "1"}, "epsilon": {"f": 0.0}, "data_format": {"s": "TkhXQw=="}, "T": {"type": "DT_FLOAT"}, "strides": {"list": {"i": ["1", "1", "1", "1"]}}, "dilations": {"list": {"i": ["1", "1", "1", "1"]}}, "fused_ops": {"list": {"s": ["Qmlhc0FkZA=="]}}, "explicit_paddings": {"list": {}}, "use_cudnn_on_gpu": {"b": true}}}, {"name": "FeatureExtractor/MobilenetV3/expanded_conv_7/expand/BatchNorm/FusedBatchNormV3", "op": "_FusedConv2D", "input": ["FeatureExtractor/MobilenetV3/expanded_conv_6/project/BatchNorm/FusedBatchNormV3", "FeatureExtractor/MobilenetV3/expanded_conv_7/expand/Conv2D_weights", "FeatureExtractor/MobilenetV3/expanded_conv_7/expand/Conv2D_bn_offset"], "device": "/device:CPU:0", "attr": {"use_cudnn_on_gpu": {"b": true}, "T": {"type": "DT_FLOAT"}, "num_args": {"i": "1"}, "data_format": {"s": "TkhXQw=="}, "explicit_paddings": {"list": {}}, "padding": {"s": "U0FNRQ=="}, "strides": {"list": {"i": ["1", "1", "1", "1"]}}, "epsilon": {"f": 0.0}, "fused_ops": {"list": {"s": ["Qmlhc0FkZA=="]}}, "dilations": {"list": {"i": ["1", "1", "1", "1"]}}}}, {"name": "FeatureExtractor/MobilenetV3/expanded_conv_7/expand/hard_swish/mul", "op": "Mul", "input": ["FeatureExtractor/MobilenetV3/expanded_conv_7/expand/hard_swish/mul_1/y", "FeatureExtractor/MobilenetV3/expanded_conv_7/expand/BatchNorm/FusedBatchNormV3"], "attr": {"T": {"type": "DT_FLOAT"}, "_grappler_ArithmeticOptimizer_MinimizeBroadcasts": {"b": true}}}, {"name": "FeatureExtractor/MobilenetV3/expanded_conv_7/expand/hard_swish/add", "op": "AddV2", "input": ["FeatureExtractor/MobilenetV3/expanded_conv_7/expand/BatchNorm/FusedBatchNormV3", "FeatureExtractor/MobilenetV3/expanded_conv_7/expand/hard_swish/add/y"], "attr": {"T": {"type": "DT_FLOAT"}}}, {"name": "FeatureExtractor/MobilenetV3/expanded_conv_7/expand/hard_swish/Relu6", "op": "Relu6", "input": ["FeatureExtractor/MobilenetV3/expanded_conv_7/expand/hard_swish/add"], "attr": {"T": {"type": "DT_FLOAT"}}}, {"name": "FeatureExtractor/MobilenetV3/expanded_conv_7/expand/hard_swish/mul_1", "op": "Mul", "input": ["FeatureExtractor/MobilenetV3/expanded_conv_7/expand/hard_swish/mul", "FeatureExtractor/MobilenetV3/expanded_conv_7/expand/hard_swish/Relu6"], "attr": {"T": {"type": "DT_FLOAT"}, "_grappler_ArithmeticOptimizer_MinimizeBroadcasts": {"b": true}}}, {"name": "FeatureExtractor/MobilenetV3/expanded_conv_7/depthwise/depthwise", "op": "FusedDepthwiseConv2dNative", "input": ["FeatureExtractor/MobilenetV3/expanded_conv_7/expand/hard_swish/mul_1", "FeatureExtractor/MobilenetV3/expanded_conv_7/depthwise/depthwise_weights", "FeatureExtractor/MobilenetV3/expanded_conv_7/depthwise/depthwise_bn_offset"], "attr": {"num_args": {"i": "1"}, "dilations": {"list": {"i": ["1", "1", "1", "1"]}}, "T": {"type": "DT_FLOAT"}, "data_format": {"s": "TkhXQw=="}, "explicit_paddings": {"list": {}}, "fused_ops": {"list": {"s": ["Qmlhc0FkZA=="]}}, "padding": {"s": "U0FNRQ=="}, "strides": {"list": {"i": ["1", "1", "1", "1"]}}}}, {"name": "FeatureExtractor/MobilenetV3/expanded_conv_7/depthwise/hard_swish/mul", "op": "Mul", "input": ["FeatureExtractor/MobilenetV3/expanded_conv_7/depthwise/hard_swish/mul_1/y", "FeatureExtractor/MobilenetV3/expanded_conv_7/depthwise/depthwise"], "attr": {"_grappler_ArithmeticOptimizer_MinimizeBroadcasts": {"b": true}, "T": {"type": "DT_FLOAT"}}}, {"name": "FeatureExtractor/MobilenetV3/expanded_conv_7/depthwise/hard_swish/add", "op": "AddV2", "input": ["FeatureExtractor/MobilenetV3/expanded_conv_7/depthwise/depthwise", "FeatureExtractor/MobilenetV3/expanded_conv_7/depthwise/hard_swish/add/y"], "attr": {"T": {"type": "DT_FLOAT"}}}, {"name": "FeatureExtractor/MobilenetV3/expanded_conv_7/depthwise/hard_swish/Relu6", "op": "Relu6", "input": ["FeatureExtractor/MobilenetV3/expanded_conv_7/depthwise/hard_swish/add"], "attr": {"T": {"type": "DT_FLOAT"}}}, {"name": "FeatureExtractor/MobilenetV3/expanded_conv_7/depthwise/hard_swish/mul_1", "op": "Mul", "input": ["FeatureExtractor/MobilenetV3/expanded_conv_7/depthwise/hard_swish/mul", "FeatureExtractor/MobilenetV3/expanded_conv_7/depthwise/hard_swish/Relu6"], "attr": {"T": {"type": "DT_FLOAT"}, "_grappler_ArithmeticOptimizer_MinimizeBroadcasts": {"b": true}}}, {"name": "FeatureExtractor/MobilenetV3/expanded_conv_7/squeeze_excite/Mean", "op": "Mean", "input": ["FeatureExtractor/MobilenetV3/expanded_conv_7/depthwise/hard_swish/mul_1", "FeatureExtractor/MobilenetV3/expanded_conv_7/squeeze_excite/Mean/reduction_indices"], "attr": {"keep_dims": {"b": true}, "T": {"type": "DT_FLOAT"}, "Tidx": {"type": "DT_INT32"}}}, {"name": "FeatureExtractor/MobilenetV3/expanded_conv_7/squeeze_excite/Conv/Relu", "op": "_FusedConv2D", "input": ["FeatureExtractor/MobilenetV3/expanded_conv_7/squeeze_excite/Mean", "FeatureExtractor/MobilenetV3/expanded_conv_7/squeeze_excite/Conv/weights", "FeatureExtractor/MobilenetV3/expanded_conv_7/squeeze_excite/Conv/biases"], "device": "/device:CPU:0", "attr": {"T": {"type": "DT_FLOAT"}, "epsilon": {"f": 0.0}, "num_args": {"i": "1"}, "explicit_paddings": {"list": {}}, "padding": {"s": "U0FNRQ=="}, "strides": {"list": {"i": ["1", "1", "1", "1"]}}, "dilations": {"list": {"i": ["1", "1", "1", "1"]}}, "fused_ops": {"list": {"s": ["Qmlhc0FkZA==", "UmVsdQ=="]}}, "data_format": {"s": "TkhXQw=="}, "use_cudnn_on_gpu": {"b": true}}}, {"name": "FeatureExtractor/MobilenetV3/expanded_conv_7/squeeze_excite/Conv_1/BiasAdd", "op": "_FusedConv2D", "input": ["FeatureExtractor/MobilenetV3/expanded_conv_7/squeeze_excite/Conv/Relu", "FeatureExtractor/MobilenetV3/expanded_conv_7/squeeze_excite/Conv_1/weights", "FeatureExtractor/MobilenetV3/expanded_conv_7/squeeze_excite/Conv_1/biases"], "device": "/device:CPU:0", "attr": {"epsilon": {"f": 0.0}, "fused_ops": {"list": {"s": ["Qmlhc0FkZA=="]}}, "use_cudnn_on_gpu": {"b": true}, "strides": {"list": {"i": ["1", "1", "1", "1"]}}, "data_format": {"s": "TkhXQw=="}, "num_args": {"i": "1"}, "explicit_paddings": {"list": {}}, "T": {"type": "DT_FLOAT"}, "dilations": {"list": {"i": ["1", "1", "1", "1"]}}, "padding": {"s": "U0FNRQ=="}}}, {"name": "FeatureExtractor/MobilenetV3/expanded_conv_7/squeeze_excite/Conv_1/add", "op": "AddV2", "input": ["FeatureExtractor/MobilenetV3/expanded_conv_7/squeeze_excite/Conv_1/BiasAdd", "FeatureExtractor/MobilenetV3/expanded_conv_7/squeeze_excite/Conv_1/add/y"], "attr": {"T": {"type": "DT_FLOAT"}}}, {"name": "FeatureExtractor/MobilenetV3/expanded_conv_7/squeeze_excite/Conv_1/Relu6", "op": "Relu6", "input": ["FeatureExtractor/MobilenetV3/expanded_conv_7/squeeze_excite/Conv_1/add"], "attr": {"T": {"type": "DT_FLOAT"}}}, {"name": "FeatureExtractor/MobilenetV3/expanded_conv_7/squeeze_excite/Conv_1/mul", "op": "Mul", "input": ["FeatureExtractor/MobilenetV3/expanded_conv_7/squeeze_excite/Conv_1/mul/y", "FeatureExtractor/MobilenetV3/expanded_conv_7/squeeze_excite/Conv_1/Relu6"], "attr": {"_grappler_ArithmeticOptimizer_MinimizeBroadcasts": {"b": true}, "T": {"type": "DT_FLOAT"}}}, {"name": "FeatureExtractor/MobilenetV3/expanded_conv_7/squeeze_excite/mul", "op": "Mul", "input": ["FeatureExtractor/MobilenetV3/expanded_conv_7/squeeze_excite/Conv_1/mul", "FeatureExtractor/MobilenetV3/expanded_conv_7/depthwise/hard_swish/mul_1"], "attr": {"_grappler_ArithmeticOptimizer_MinimizeBroadcasts": {"b": true}, "T": {"type": "DT_FLOAT"}}}, {"name": "FeatureExtractor/MobilenetV3/expanded_conv_7/project/BatchNorm/FusedBatchNormV3", "op": "_FusedConv2D", "input": ["FeatureExtractor/MobilenetV3/expanded_conv_7/squeeze_excite/mul", "FeatureExtractor/MobilenetV3/expanded_conv_7/project/Conv2D_weights", "FeatureExtractor/MobilenetV3/expanded_conv_7/project/Conv2D_bn_offset"], "device": "/device:CPU:0", "attr": {"T": {"type": "DT_FLOAT"}, "strides": {"list": {"i": ["1", "1", "1", "1"]}}, "dilations": {"list": {"i": ["1", "1", "1", "1"]}}, "padding": {"s": "U0FNRQ=="}, "use_cudnn_on_gpu": {"b": true}, "fused_ops": {"list": {"s": ["Qmlhc0FkZA=="]}}, "explicit_paddings": {"list": {}}, "epsilon": {"f": 0.0}, "num_args": {"i": "1"}, "data_format": {"s": "TkhXQw=="}}}, {"name": "FeatureExtractor/MobilenetV3/expanded_conv_7/add", "op": "AddV2", "input": ["FeatureExtractor/MobilenetV3/expanded_conv_7/project/BatchNorm/FusedBatchNormV3", "FeatureExtractor/MobilenetV3/expanded_conv_6/project/BatchNorm/FusedBatchNormV3"], "attr": {"T": {"type": "DT_FLOAT"}}}, {"name": "FeatureExtractor/MobilenetV3/expanded_conv_8/expand/BatchNorm/FusedBatchNormV3", "op": "_FusedConv2D", "input": ["FeatureExtractor/MobilenetV3/expanded_conv_7/add", "FeatureExtractor/MobilenetV3/expanded_conv_8/expand/Conv2D_weights", "FeatureExtractor/MobilenetV3/expanded_conv_8/expand/Conv2D_bn_offset"], "device": "/device:CPU:0", "attr": {"strides": {"list": {"i": ["1", "1", "1", "1"]}}, "epsilon": {"f": 0.0}, "padding": {"s": "U0FNRQ=="}, "fused_ops": {"list": {"s": ["Qmlhc0FkZA=="]}}, "dilations": {"list": {"i": ["1", "1", "1", "1"]}}, "use_cudnn_on_gpu": {"b": true}, "T": {"type": "DT_FLOAT"}, "explicit_paddings": {"list": {}}, "num_args": {"i": "1"}, "data_format": {"s": "TkhXQw=="}}}, {"name": "FeatureExtractor/MobilenetV3/expanded_conv_8/expand/hard_swish/mul", "op": "Mul", "input": ["FeatureExtractor/MobilenetV3/expanded_conv_8/expand/hard_swish/mul_1/y", "FeatureExtractor/MobilenetV3/expanded_conv_8/expand/BatchNorm/FusedBatchNormV3"], "attr": {"_grappler_ArithmeticOptimizer_MinimizeBroadcasts": {"b": true}, "T": {"type": "DT_FLOAT"}}}, {"name": "FeatureExtractor/MobilenetV3/expanded_conv_8/expand/hard_swish/add", "op": "AddV2", "input": ["FeatureExtractor/MobilenetV3/expanded_conv_8/expand/BatchNorm/FusedBatchNormV3", "FeatureExtractor/MobilenetV3/expanded_conv_8/expand/hard_swish/add/y"], "attr": {"T": {"type": "DT_FLOAT"}}}, {"name": "FeatureExtractor/MobilenetV3/expanded_conv_8/expand/hard_swish/Relu6", "op": "Relu6", "input": ["FeatureExtractor/MobilenetV3/expanded_conv_8/expand/hard_swish/add"], "attr": {"T": {"type": "DT_FLOAT"}}}, {"name": "FeatureExtractor/MobilenetV3/expanded_conv_8/expand/hard_swish/mul_1", "op": "Mul", "input": ["FeatureExtractor/MobilenetV3/expanded_conv_8/expand/hard_swish/mul", "FeatureExtractor/MobilenetV3/expanded_conv_8/expand/hard_swish/Relu6"], "attr": {"T": {"type": "DT_FLOAT"}, "_grappler_ArithmeticOptimizer_MinimizeBroadcasts": {"b": true}}}, {"name": "BoxPredictor_0/Shape", "op": "Shape", "input": ["FeatureExtractor/MobilenetV3/expanded_conv_8/expand/hard_swish/mul_1"], "attr": {"out_type": {"type": "DT_INT32"}, "T": {"type": "DT_FLOAT"}}}, {"name": "BoxPredictor_0/Shape_1", "op": "Shape", "input": ["FeatureExtractor/MobilenetV3/expanded_conv_8/expand/hard_swish/mul_1"], "attr": {"T": {"type": "DT_FLOAT"}, "out_type": {"type": "DT_INT32"}}}, {"name": "BoxPredictor_0/BoxEncodingPredictor_depthwise/depthwise", "op": "FusedDepthwiseConv2dNative", "input": ["FeatureExtractor/MobilenetV3/expanded_conv_8/expand/hard_swish/mul_1", "BoxPredictor_0/BoxEncodingPredictor_depthwise/depthwise_weights", "BoxPredictor_0/BoxEncodingPredictor_depthwise/depthwise_bn_offset"], "attr": {"data_format": {"s": "TkhXQw=="}, "strides": {"list": {"i": ["1", "1", "1", "1"]}}, "num_args": {"i": "1"}, "explicit_paddings": {"list": {}}, "padding": {"s": "U0FNRQ=="}, "fused_ops": {"list": {"s": ["Qmlhc0FkZA==", "UmVsdTY="]}}, "dilations": {"list": {"i": ["1", "1", "1", "1"]}}, "T": {"type": "DT_FLOAT"}}}, {"name": "BoxPredictor_0/ClassPredictor_depthwise/depthwise", "op": "FusedDepthwiseConv2dNative", "input": ["FeatureExtractor/MobilenetV3/expanded_conv_8/expand/hard_swish/mul_1", "BoxPredictor_0/ClassPredictor_depthwise/depthwise_weights", "BoxPredictor_0/ClassPredictor_depthwise/depthwise_bn_offset"], "attr": {"fused_ops": {"list": {"s": ["Qmlhc0FkZA==", "UmVsdTY="]}}, "strides": {"list": {"i": ["1", "1", "1", "1"]}}, "explicit_paddings": {"list": {}}, "num_args": {"i": "1"}, "data_format": {"s": "TkhXQw=="}, "T": {"type": "DT_FLOAT"}, "padding": {"s": "U0FNRQ=="}, "dilations": {"list": {"i": ["1", "1", "1", "1"]}}}}, {"name": "FeatureExtractor/MobilenetV3/expanded_conv_8/depthwise/depthwise", "op": "FusedDepthwiseConv2dNative", "input": ["FeatureExtractor/MobilenetV3/expanded_conv_8/expand/hard_swish/mul_1", "FeatureExtractor/MobilenetV3/expanded_conv_8/depthwise/depthwise_weights", "FeatureExtractor/MobilenetV3/expanded_conv_8/depthwise/depthwise_bn_offset"], "attr": {"padding": {"s": "U0FNRQ=="}, "strides": {"list": {"i": ["1", "2", "2", "1"]}}, "num_args": {"i": "1"}, "dilations": {"list": {"i": ["1", "1", "1", "1"]}}, "fused_ops": {"list": {"s": ["Qmlhc0FkZA=="]}}, "explicit_paddings": {"list": {}}, "data_format": {"s": "TkhXQw=="}, "T": {"type": "DT_FLOAT"}}}, {"name": "BoxPredictor_0/strided_slice", "op": "StridedSlice", "input": ["BoxPredictor_0/Shape", "BoxPredictor_0/strided_slice/stack", "BoxPredictor_0/strided_slice/stack_1", "BoxPredictor_0/strided_slice/stack_2"], "attr": {"end_mask": {"i": "0"}, "ellipsis_mask": {"i": "0"}, "T": {"type": "DT_INT32"}, "shrink_axis_mask": {"i": "1"}, "Index": {"type": "DT_INT32"}, "begin_mask": {"i": "0"}, "new_axis_mask": {"i": "0"}}}, {"name": "BoxPredictor_0/strided_slice_1", "op": "StridedSlice", "input": ["BoxPredictor_0/Shape_1", "BoxPredictor_0/strided_slice_1/stack", "BoxPredictor_0/strided_slice_1/stack_1", "BoxPredictor_0/strided_slice_1/stack_2"], "attr": {"ellipsis_mask": {"i": "0"}, "Index": {"type": "DT_INT32"}, "shrink_axis_mask": {"i": "1"}, "new_axis_mask": {"i": "0"}, "T": {"type": "DT_INT32"}, "begin_mask": {"i": "0"}, "end_mask": {"i": "0"}}}, {"name": "BoxPredictor_0/Reshape/shape", "op": "Pack", "input": ["BoxPredictor_0/strided_slice", "BoxPredictor_0/Reshape/shape/1", "BoxPredictor_0/Reshape/shape/2", "BoxPredictor_0/Reshape/shape/3"], "attr": {"N": {"i": "4"}, "axis": {"i": "0"}, "T": {"type": "DT_INT32"}}}, {"name": "BoxPredictor_0/Reshape_1/shape", "op": "Pack", "input": ["BoxPredictor_0/strided_slice_1", "BoxPredictor_0/Reshape_1/shape/1", "BoxPredictor_0/Reshape_1/shape/2"], "attr": {"axis": {"i": "0"}, "T": {"type": "DT_INT32"}, "N": {"i": "3"}}}, {"name": "FeatureExtractor/MobilenetV3/expanded_conv_8/depthwise/hard_swish/mul", "op": "Mul", "input": ["FeatureExtractor/MobilenetV3/expanded_conv_8/depthwise/hard_swish/mul_1/y", "FeatureExtractor/MobilenetV3/expanded_conv_8/depthwise/depthwise"], "attr": {"T": {"type": "DT_FLOAT"}, "_grappler_ArithmeticOptimizer_MinimizeBroadcasts": {"b": true}}}, {"name": "FeatureExtractor/MobilenetV3/expanded_conv_8/depthwise/hard_swish/add", "op": "AddV2", "input": ["FeatureExtractor/MobilenetV3/expanded_conv_8/depthwise/depthwise", "FeatureExtractor/MobilenetV3/expanded_conv_8/depthwise/hard_swish/add/y"], "attr": {"T": {"type": "DT_FLOAT"}}}, {"name": "BoxPredictor_0/BoxEncodingPredictor/BiasAdd", "op": "_FusedConv2D", "input": ["BoxPredictor_0/BoxEncodingPredictor_depthwise/depthwise", "BoxPredictor_0/BoxEncodingPredictor/weights", "BoxPredictor_0/BoxEncodingPredictor/biases"], "device": "/device:CPU:0", "attr": {"data_format": {"s": "TkhXQw=="}, "padding": {"s": "U0FNRQ=="}, "fused_ops": {"list": {"s": ["Qmlhc0FkZA=="]}}, "epsilon": {"f": 0.0}, "dilations": {"list": {"i": ["1", "1", "1", "1"]}}, "num_args": {"i": "1"}, "strides": {"list": {"i": ["1", "1", "1", "1"]}}, "use_cudnn_on_gpu": {"b": true}, "explicit_paddings": {"list": {}}, "T": {"type": "DT_FLOAT"}}}, {"name": "BoxPredictor_0/ClassPredictor/BiasAdd", "op": "_FusedConv2D", "input": ["BoxPredictor_0/ClassPredictor_depthwise/depthwise", "BoxPredictor_0/ClassPredictor/weights", "BoxPredictor_0/ClassPredictor/biases"], "device": "/device:CPU:0", "attr": {"use_cudnn_on_gpu": {"b": true}, "T": {"type": "DT_FLOAT"}, "dilations": {"list": {"i": ["1", "1", "1", "1"]}}, "num_args": {"i": "1"}, "explicit_paddings": {"list": {}}, "epsilon": {"f": 0.0}, "strides": {"list": {"i": ["1", "1", "1", "1"]}}, "fused_ops": {"list": {"s": ["Qmlhc0FkZA=="]}}, "padding": {"s": "U0FNRQ=="}, "data_format": {"s": "TkhXQw=="}}}, {"name": "FeatureExtractor/MobilenetV3/expanded_conv_8/depthwise/hard_swish/Relu6", "op": "Relu6", "input": ["FeatureExtractor/MobilenetV3/expanded_conv_8/depthwise/hard_swish/add"], "attr": {"T": {"type": "DT_FLOAT"}}}, {"name": "BoxPredictor_0/Reshape", "op": "Reshape", "input": ["BoxPredictor_0/BoxEncodingPredictor/BiasAdd", "BoxPredictor_0/Reshape/shape"], "attr": {"T": {"type": "DT_FLOAT"}, "Tshape": {"type": "DT_INT32"}}}, {"name": "BoxPredictor_0/Reshape_1", "op": "Reshape", "input": ["BoxPredictor_0/ClassPredictor/BiasAdd", "BoxPredictor_0/Reshape_1/shape"], "attr": {"Tshape": {"type": "DT_INT32"}, "T": {"type": "DT_FLOAT"}}}, {"name": "FeatureExtractor/MobilenetV3/expanded_conv_8/depthwise/hard_swish/mul_1", "op": "Mul", "input": ["FeatureExtractor/MobilenetV3/expanded_conv_8/depthwise/hard_swish/mul", "FeatureExtractor/MobilenetV3/expanded_conv_8/depthwise/hard_swish/Relu6"], "attr": {"_grappler_ArithmeticOptimizer_MinimizeBroadcasts": {"b": true}, "T": {"type": "DT_FLOAT"}}}, {"name": "FeatureExtractor/MobilenetV3/expanded_conv_8/squeeze_excite/Mean", "op": "Mean", "input": ["FeatureExtractor/MobilenetV3/expanded_conv_8/depthwise/hard_swish/mul_1", "FeatureExtractor/MobilenetV3/expanded_conv_8/squeeze_excite/Mean/reduction_indices"], "attr": {"Tidx": {"type": "DT_INT32"}, "T": {"type": "DT_FLOAT"}, "keep_dims": {"b": true}}}, {"name": "FeatureExtractor/MobilenetV3/expanded_conv_8/squeeze_excite/Conv/Relu", "op": "_FusedConv2D", "input": ["FeatureExtractor/MobilenetV3/expanded_conv_8/squeeze_excite/Mean", "FeatureExtractor/MobilenetV3/expanded_conv_8/squeeze_excite/Conv/weights", "FeatureExtractor/MobilenetV3/expanded_conv_8/squeeze_excite/Conv/biases"], "device": "/device:CPU:0", "attr": {"use_cudnn_on_gpu": {"b": true}, "strides": {"list": {"i": ["1", "1", "1", "1"]}}, "dilations": {"list": {"i": ["1", "1", "1", "1"]}}, "data_format": {"s": "TkhXQw=="}, "num_args": {"i": "1"}, "fused_ops": {"list": {"s": ["Qmlhc0FkZA==", "UmVsdQ=="]}}, "explicit_paddings": {"list": {}}, "epsilon": {"f": 0.0}, "T": {"type": "DT_FLOAT"}, "padding": {"s": "U0FNRQ=="}}}, {"name": "FeatureExtractor/MobilenetV3/expanded_conv_8/squeeze_excite/Conv_1/BiasAdd", "op": "_FusedConv2D", "input": ["FeatureExtractor/MobilenetV3/expanded_conv_8/squeeze_excite/Conv/Relu", "FeatureExtractor/MobilenetV3/expanded_conv_8/squeeze_excite/Conv_1/weights", "FeatureExtractor/MobilenetV3/expanded_conv_8/squeeze_excite/Conv_1/biases"], "device": "/device:CPU:0", "attr": {"padding": {"s": "U0FNRQ=="}, "dilations": {"list": {"i": ["1", "1", "1", "1"]}}, "T": {"type": "DT_FLOAT"}, "num_args": {"i": "1"}, "epsilon": {"f": 0.0}, "fused_ops": {"list": {"s": ["Qmlhc0FkZA=="]}}, "explicit_paddings": {"list": {}}, "strides": {"list": {"i": ["1", "1", "1", "1"]}}, "data_format": {"s": "TkhXQw=="}, "use_cudnn_on_gpu": {"b": true}}}, {"name": "FeatureExtractor/MobilenetV3/expanded_conv_8/squeeze_excite/Conv_1/add", "op": "AddV2", "input": ["FeatureExtractor/MobilenetV3/expanded_conv_8/squeeze_excite/Conv_1/BiasAdd", "FeatureExtractor/MobilenetV3/expanded_conv_8/squeeze_excite/Conv_1/add/y"], "attr": {"T": {"type": "DT_FLOAT"}}}, {"name": "FeatureExtractor/MobilenetV3/expanded_conv_8/squeeze_excite/Conv_1/Relu6", "op": "Relu6", "input": ["FeatureExtractor/MobilenetV3/expanded_conv_8/squeeze_excite/Conv_1/add"], "attr": {"T": {"type": "DT_FLOAT"}}}, {"name": "FeatureExtractor/MobilenetV3/expanded_conv_8/squeeze_excite/Conv_1/mul", "op": "Mul", "input": ["FeatureExtractor/MobilenetV3/expanded_conv_8/squeeze_excite/Conv_1/mul/y", "FeatureExtractor/MobilenetV3/expanded_conv_8/squeeze_excite/Conv_1/Relu6"], "attr": {"T": {"type": "DT_FLOAT"}, "_grappler_ArithmeticOptimizer_MinimizeBroadcasts": {"b": true}}}, {"name": "FeatureExtractor/MobilenetV3/expanded_conv_8/squeeze_excite/mul", "op": "Mul", "input": ["FeatureExtractor/MobilenetV3/expanded_conv_8/squeeze_excite/Conv_1/mul", "FeatureExtractor/MobilenetV3/expanded_conv_8/depthwise/hard_swish/mul_1"], "attr": {"_grappler_ArithmeticOptimizer_MinimizeBroadcasts": {"b": true}, "T": {"type": "DT_FLOAT"}}}, {"name": "FeatureExtractor/MobilenetV3/expanded_conv_8/project/BatchNorm/FusedBatchNormV3", "op": "_FusedConv2D", "input": ["FeatureExtractor/MobilenetV3/expanded_conv_8/squeeze_excite/mul", "FeatureExtractor/MobilenetV3/expanded_conv_8/project/Conv2D_weights", "FeatureExtractor/MobilenetV3/expanded_conv_8/project/Conv2D_bn_offset"], "device": "/device:CPU:0", "attr": {"explicit_paddings": {"list": {}}, "T": {"type": "DT_FLOAT"}, "strides": {"list": {"i": ["1", "1", "1", "1"]}}, "num_args": {"i": "1"}, "data_format": {"s": "TkhXQw=="}, "fused_ops": {"list": {"s": ["Qmlhc0FkZA=="]}}, "epsilon": {"f": 0.0}, "dilations": {"list": {"i": ["1", "1", "1", "1"]}}, "use_cudnn_on_gpu": {"b": true}, "padding": {"s": "U0FNRQ=="}}}, {"name": "FeatureExtractor/MobilenetV3/expanded_conv_9/expand/BatchNorm/FusedBatchNormV3", "op": "_FusedConv2D", "input": ["FeatureExtractor/MobilenetV3/expanded_conv_8/project/BatchNorm/FusedBatchNormV3", "FeatureExtractor/MobilenetV3/expanded_conv_9/expand/Conv2D_weights", "FeatureExtractor/MobilenetV3/expanded_conv_9/expand/Conv2D_bn_offset"], "device": "/device:CPU:0", "attr": {"data_format": {"s": "TkhXQw=="}, "num_args"…
uint8", "min": 0.16666999459266663, "scale": 1.0, "original_dtype": "float32"}}, {"name": "FeatureExtractor/MobilenetV3/expanded_conv_9/squeeze_excite/Mean/reduction_indices", "shape": [2], "dtype": "int32"}, {"name": "FeatureExtractor/MobilenetV3/expanded_conv_9/squeeze_excite/Conv/weights", "shape": [1, 1, 288, 72], "dtype": "float32", "quantization": {"dtype": "uint8", "min": -0.0006954469752278836, "scale": 3.44280680805883e-06, "original_dtype": "float32"}}, {"name": "FeatureExtractor/MobilenetV3/expanded_conv_9/squeeze_excite/Conv/biases", "shape": [72], "dtype": "float32", "quantization": {"dtype": "uint8", "min": -0.025173386953332846, "scale": 0.00025427663589225097, "original_dtype": "float32"}}, {"name": "FeatureExtractor/MobilenetV3/expanded_conv_9/squeeze_excite/Conv_1/weights", "shape": [1, 1, 72, 288], "dtype": "float32", "quantization": {"dtype": "uint8", "min": -0.0006672716738345722, "scale": 5.60732499020649e-06, "original_dtype": "float32"}}, {"name": "FeatureExtractor/MobilenetV3/expanded_conv_9/squeeze_excite/Conv_1/biases", "shape": [288], "dtype": "float32", "quantization": {"dtype": "uint8", "min": -1.1223362062491622, "scale": 0.011452410267848594, "original_dtype": "float32"}}, {"name": "FeatureExtractor/MobilenetV3/expanded_conv_9/squeeze_excite/Conv_1/add/y", "shape": [], "dtype": "float32", "quantization": {"dtype": "uint8", "min": 3.0, "scale": 1.0, "original_dtype": "float32"}}, {"name": "FeatureExtractor/MobilenetV3/expanded_conv_9/depthwise/hard_swish/mul_1/y", "shape": [], "dtype": "float32", "quantization": {"dtype": "uint8", "min": 0.1666666716337204, "scale": 1.0, "original_dtype": "float32"}}, {"name": "FeatureExtractor/MobilenetV3/expanded_conv_9/expand/hard_swish/mul_1/y", "shape": [], "dtype": "float32", "quantization": {"dtype": "uint8", "min": 0.1666666716337204, "scale": 1.0, "original_dtype": "float32"}}, {"name": "FeatureExtractor/MobilenetV3/expanded_conv_9/expand/hard_swish/add/y", "shape": [], "dtype": "float32", "quantization": {"dtype": "uint8", "min": 3.0, "scale": 1.0, "original_dtype": "float32"}}, {"name": "FeatureExtractor/MobilenetV3/expanded_conv_9/depthwise/hard_swish/add/y", "shape": [], "dtype": "float32", "quantization": {"dtype": "uint8", "min": 3.0, "scale": 1.0, "original_dtype": "float32"}}, {"name": "FeatureExtractor/MobilenetV3/expanded_conv_8/squeeze_excite/Conv_1/mul/y", "shape": [], "dtype": "float32", "quantization": {"dtype": "uint8", "min": 0.16666999459266663, "scale": 1.0, "original_dtype": "float32"}}, {"name": "FeatureExtractor/MobilenetV3/expanded_conv_8/squeeze_excite/Mean/reduction_indices", "shape": [2], "dtype": "int32"}, {"name": "FeatureExtractor/MobilenetV3/expanded_conv_8/squeeze_excite/Conv/weights", "shape": [1, 1, 288, 72], "dtype": "float32", "quantization": {"dtype": "uint8", "min": -0.4763950793182149, "scale": 0.004071752814685597, "original_dtype": "float32"}}, {"name": "FeatureExtractor/MobilenetV3/expanded_conv_8/squeeze_excite/Conv/biases", "shape": [72], "dtype": "float32", "quantization": {"dtype": "uint8", "min": -0.061260572864728816, "scale": 0.006806730318303202, "original_dtype": "float32"}}, {"name": "FeatureExtractor/MobilenetV3/expanded_conv_8/squeeze_excite/Conv_1/weights", "shape": [1, 1, 72, 288], "dtype": "float32", "quantization": {"dtype": "uint8", "min": -0.4302237510681152, "scale": 0.003163409934324377, "original_dtype": "float32"}}, {"name": "FeatureExtractor/MobilenetV3/expanded_conv_8/squeeze_excite/Conv_1/biases", "shape": [288], "dtype": "float32", "quantization": {"dtype": "uint8", "min": -2.5554860760183895, "scale": 0.013105056800094305, "original_dtype": "float32"}}, {"name": "FeatureExtractor/MobilenetV3/expanded_conv_8/squeeze_excite/Conv_1/add/y", "shape": [], "dtype": "float32", "quantization": {"dtype": "uint8", "min": 3.0, "scale": 1.0, "original_dtype": "float32"}}, {"name": "FeatureExtractor/MobilenetV3/expanded_conv_8/depthwise/hard_swish/mul_1/y", "shape": [], "dtype": "float32", "quantization": {"dtype": "uint8", "min": 0.1666666716337204, "scale": 1.0, "original_dtype": "float32"}}, {"name": "FeatureExtractor/MobilenetV3/expanded_conv_8/expand/hard_swish/mul_1/y", "shape": [], "dtype": "float32", "quantization": {"dtype": "uint8", "min": 0.1666666716337204, "scale": 1.0, "original_dtype": "float32"}}, {"name": "FeatureExtractor/MobilenetV3/expanded_conv_7/squeeze_excite/Conv_1/mul/y", "shape": [], "dtype": "float32", "quantization": {"dtype": "uint8", "min": 0.16666999459266663, "scale": 1.0, "original_dtype": "float32"}}, {"name": "FeatureExtractor/MobilenetV3/expanded_conv_7/squeeze_excite/Mean/reduction_indices", "shape": [2], "dtype": "int32"}, {"name": "FeatureExtractor/MobilenetV3/expanded_conv_7/squeeze_excite/Conv/weights", "shape": [1, 1, 144, 40], "dtype": "float32", "quantization": {"dtype": "uint8", "min": -0.00010568134625917119, "scale": 5.130162439765592e-07, "original_dtype": "float32"}}, {"name": "FeatureExtractor/MobilenetV3/expanded_conv_7/squeeze_excite/Conv/biases", "shape": [40], "dtype": "float32", "quantization": {"dtype": "uint8", "min": -0.24112955639686653, "scale": 0.0009645182255874662, "original_dtype": "float32"}}, {"name": "FeatureExtractor/MobilenetV3/expanded_conv_7/squeeze_excite/Conv_1/weights", "shape": [1, 1, 40, 144], "dtype": "float32", "quantization": {"dtype": "uint8", "min": -0.00012447658433195423, "scale": 7.409320495949657e-07, "original_dtype": "float32"}}, {"name": "FeatureExtractor/MobilenetV3/expanded_conv_7/squeeze_excite/Conv_1/biases", "shape": [144], "dtype": "float32", "quantization": {"dtype": "uint8", "min": -0.8284664995530072, "scale": 0.009104027467615464, "original_dtype": "float32"}}, {"name": "FeatureExtractor/MobilenetV3/expanded_conv_7/squeeze_excite/Conv_1/add/y", "shape": [], "dtype": "float32", "quantization": {"dtype": "uint8", "min": 3.0, "scale": 1.0, "original_dtype": "float32"}}, {"name": "FeatureExtractor/MobilenetV3/expanded_conv_7/depthwise/hard_swish/mul_1/y", "shape": [], "dtype": "float32", "quantization": {"dtype": "uint8", "min": 0.1666666716337204, "scale": 1.0, "original_dtype": "float32"}}, {"name": "FeatureExtractor/MobilenetV3/expanded_conv_7/expand/hard_swish/mul_1/y", "shape": [], "dtype": "float32", "quantization": {"dtype": "uint8", "min": 0.1666666716337204, "scale": 1.0, "original_dtype": "float32"}}, {"name": "FeatureExtractor/MobilenetV3/expanded_conv_7/expand/hard_swish/add/y", "shape": [], "dtype": "float32", "quantization": {"dtype": "uint8", "min": 3.0, "scale": 1.0, "original_dtype": "float32"}}, {"name": "FeatureExtractor/MobilenetV3/expanded_conv_7/depthwise/hard_swish/add/y", "shape": [], "dtype": "float32", "quantization": {"dtype": "uint8", "min": 3.0, "scale": 1.0, "original_dtype": "float32"}}, {"name": "FeatureExtractor/MobilenetV3/expanded_conv_6/squeeze_excite/Conv_1/mul/y", "shape": [], "dtype": "float32", "quantization": {"dtype": "uint8", "min": 0.16666999459266663, "scale": 1.0, "original_dtype": "float32"}}, {"name": "FeatureExtractor/MobilenetV3/expanded_conv_6/squeeze_excite/Mean/reduction_indices", "shape": [2], "dtype": "int32"}, {"name": "FeatureExtractor/MobilenetV3/expanded_conv_6/squeeze_excite/Conv/weights", "shape": [1, 1, 120, 32], "dtype": "float32", "quantization": {"dtype": "uint8", "min": -0.3473963071318234, "scale": 0.0031581482466529398, "original_dtype": "float32"}}, {"name": "FeatureExtractor/MobilenetV3/expanded_conv_6/squeeze_excite/Conv/biases", "shape": [32], "dtype": "float32", "quantization": {"dtype": "uint8", "min": -0.26351586463404636, "scale": 0.00941128087978737, "original_dtype": "float32"}}, {"name": "FeatureExtractor/MobilenetV3/expanded_conv_6/squeeze_excite/Conv_1/weights", "shape": [1, 1, 32, 120], "dtype": "float32", "quantization": {"dtype": "uint8", "min": -0.3146697072421803, "scale": 0.0026222475603515025, "original_dtype": "float32"}}, {"name": "FeatureExtractor/MobilenetV3/expanded_conv_6/squeeze_excite/Conv_1/biases", "shape": [120], "dtype": "float32", "quantization": {"dtype": "uint8", "min": -2.9175202266842715, "scale": 0.017898897096222523, "original_dtype": "float32"}}, {"name": "FeatureExtractor/MobilenetV3/expanded_conv_6/squeeze_excite/Conv_1/add/y", "shape": [], "dtype": "float32", "quantization": {"dtype": "uint8", "min": 3.0, "scale": 1.0, "original_dtype": "float32"}}, {"name": "FeatureExtractor/MobilenetV3/expanded_conv_6/depthwise/hard_swish/mul_1/y", "shape": [], "dtype": "float32", "quantization": {"dtype": "uint8", "min": 0.1666666716337204, "scale": 1.0, "original_dtype": "float32"}}, {"name": "FeatureExtractor/MobilenetV3/expanded_conv_6/expand/hard_swish/mul_1/y", "shape": [], "dtype": "float32", "quantization": {"dtype": "uint8", "min": 0.1666666716337204, "scale": 1.0, "original_dtype": "float32"}}, {"name": "FeatureExtractor/MobilenetV3/expanded_conv_5/squeeze_excite/Conv_1/mul/y", "shape": [], "dtype": "float32", "quantization": {"dtype": "uint8", "min": 0.16666999459266663, "scale": 1.0, "original_dtype": "float32"}}, {"name": "FeatureExtractor/MobilenetV3/expanded_conv_5/squeeze_excite/Mean/reduction_indices", "shape": [2], "dtype": "int32"}, {"name": "FeatureExtractor/MobilenetV3/expanded_conv_5/squeeze_excite/Conv/weights", "shape": [1, 1, 240, 64], "dtype": "float32", "quantization": {"dtype": "uint8", "min": -0.0969533383846283, "scale": 0.0009146541357040405, "original_dtype": "float32"}}, {"name": "FeatureExtractor/MobilenetV3/expanded_conv_5/squeeze_excite/Conv/biases", "shape": [64], "dtype": "float32", "quantization": {"dtype": "uint8", "min": -0.08891834084894143, "scale": 0.0019330074097595963, "original_dtype": "float32"}}, {"name": "FeatureExtractor/MobilenetV3/expanded_conv_5/squeeze_excite/Conv_1/weights", "shape": [1, 1, 64, 240], "dtype": "float32", "quantization": {"dtype": "uint8", "min": -0.08761155517662274, "scale": 0.0006302989581051995, "original_dtype": "float32"}}, {"name": "FeatureExtractor/MobilenetV3/expanded_conv_5/squeeze_excite/Conv_1/biases", "shape": [240], "dtype": "float32", "quantization": {"dtype": "uint8", "min": -2.779828649408677, "scale": 0.01759385221144732, "original_dtype": "float32"}}, {"name": "FeatureExtractor/MobilenetV3/expanded_conv_5/squeeze_excite/Conv_1/add/y", "shape": [], "dtype": "float32", "quantization": {"dtype": "uint8", "min": 3.0, "scale": 1.0, "original_dtype": "float32"}}, {"name": "FeatureExtractor/MobilenetV3/expanded_conv_5/depthwise/hard_swish/mul_1/y", "shape": [], "dtype": "float32", "quantization": {"dtype": "uint8", "min": 0.1666666716337204, "scale": 1.0, "original_dtype": "float32"}}, {"name": "FeatureExtractor/MobilenetV3/expanded_conv_5/expand/hard_swish/mul_1/y", "shape": [], "dtype": "float32", "quantization": {"dtype": "uint8", "min": 0.1666666716337204, "scale": 1.0, "original_dtype": "float32"}}, {"name": "FeatureExtractor/MobilenetV3/expanded_conv_5/expand/hard_swish/add/y", "shape": [], "dtype": "float32", "quantization": {"dtype": "uint8", "min": 3.0, "scale": 1.0, "original_dtype": "float32"}}, {"name": "FeatureExtractor/MobilenetV3/expanded_conv_5/depthwise/hard_swish/add/y", "shape": [], "dtype": "float32", "quantization": {"dtype": "uint8", "min": 3.0, "scale": 1.0, "original_dtype": "float32"}}, {"name": "FeatureExtractor/MobilenetV3/expanded_conv_4/squeeze_excite/Conv_1/mul/y", "shape": [], "dtype": "float32", "quantization": {"dtype": "uint8", "min": 0.16666999459266663, "scale": 1.0, "original_dtype": "float32"}}, {"name": "FeatureExtractor/MobilenetV3/expanded_conv_4/squeeze_excite/Mean/reduction_indices", "shape": [2], "dtype": "int32"}, {"name": "FeatureExtractor/MobilenetV3/expanded_conv_4/squeeze_excite/Conv/weights", "shape": [1, 1, 240, 64], "dtype": "float32", "quantization": {"dtype": "uint8", "min": -0.2932339724372415, "scale": 0.0030545205462212655, "original_dtype": "float32"}}, {"name": "FeatureExtractor/MobilenetV3/expanded_conv_4/squeeze_excite/Conv/biases", "shape": [64], "dtype": "float32", "quantization": {"dtype": "uint8", "min": -0.41402769743227485, "scale": 0.004404549972683775, "original_dtype": "float32"}}, {"name": "FeatureExtractor/MobilenetV3/expanded_conv_4/squeeze_excite/Conv_1/weights", "shape": [1, 1, 64, 240], "dtype": "float32", "quantization": {"dtype": "uint8", "min": -0.3673574910444372, "scale": 0.0021866517324073643, "original_dtype": "float32"}}, {"name": "FeatureExtractor/MobilenetV3/expanded_conv_4/squeeze_excite/Conv_1/biases", "shape": [240], "dtype": "float32", "quantization": {"dtype": "uint8", "min": -2.4541456643272848, "scale": 0.014104285427168304, "original_dtype": "float32"}}, {"name": "FeatureExtractor/MobilenetV3/expanded_conv_4/squeeze_excite/Conv_1/add/y", "shape": [], "dtype": "float32", "quantization": {"dtype": "uint8", "min": 3.0, "scale": 1.0, "original_dtype": "float32"}}, {"name": "FeatureExtractor/MobilenetV3/expanded_conv_4/depthwise/hard_swish/mul_1/y", "shape": [], "dtype": "float32", "quantization": {"dtype": "uint8", "min": 0.1666666716337204, "scale": 1.0, "original_dtype": "float32"}}, {"name": "FeatureExtractor/MobilenetV3/expanded_conv_4/expand/hard_swish/mul_1/y", "shape": [], "dtype": "float32", "quantization": {"dtype": "uint8", "min": 0.1666666716337204, "scale": 1.0, "original_dtype": "float32"}}, {"name": "FeatureExtractor/MobilenetV3/expanded_conv_4/expand/hard_swish/add/y", "shape": [], "dtype": "float32", "quantization": {"dtype": "uint8", "min": 3.0, "scale": 1.0, "original_dtype": "float32"}}, {"name": "FeatureExtractor/MobilenetV3/expanded_conv_4/depthwise/hard_swish/add/y", "shape": [], "dtype": "float32", "quantization": {"dtype": "uint8", "min": 3.0, "scale": 1.0, "original_dtype": "float32"}}, {"name": "FeatureExtractor/MobilenetV3/expanded_conv_3/squeeze_excite/Conv_1/mul/y", "shape": [], "dtype": "float32", "quantization": {"dtype": "uint8", "min": 0.16666999459266663, "scale": 1.0, "original_dtype": "float32"}}, {"name": "FeatureExtractor/MobilenetV3/expanded_conv_3/squeeze_excite/Mean/reduction_indices", "shape": [2], "dtype": "int32"}, {"name": "FeatureExtractor/MobilenetV3/expanded_conv_3/squeeze_excite/Conv/weights", "shape": [1, 1, 96, 24], "dtype": "float32", "quantization": {"dtype": "uint8", "min": -0.42777801307977414, "scale": 0.004035641632828058, "original_dtype": "float32"}}, {"name": "FeatureExtractor/MobilenetV3/expanded_conv_3/squeeze_excite/Conv/biases", "shape": [24], "dtype": "float32", "quantization": {"dtype": "uint8", "min": -0.6851936737696329, "scale": 0.007289294401804606, "original_dtype": "float32"}}, {"name": "FeatureExtractor/MobilenetV3/expanded_conv_3/squeeze_excite/Conv_1/weights", "shape": [1, 1, 24, 96], "dtype": "float32", "quantization": {"dtype": "uint8", "min": -0.5039804381482741, "scale": 0.0031696882902407177, "original_dtype": "float32"}}, {"name": "FeatureExtractor/MobilenetV3/expanded_conv_3/squeeze_excite/Conv_1/biases", "shape": [96], "dtype": "float32", "quantization": {"dtype": "uint8", "min": -2.4348379079033347, "scale": 0.021358227262309952, "original_dtype": "float32"}}, {"name": "FeatureExtractor/MobilenetV3/expanded_conv_3/squeeze_excite/Conv_1/add/y", "shape": [], "dtype": "float32", "quantization": {"dtype": "uint8", "min": 3.0, "scale": 1.0, "original_dtype": "float32"}}, {"name": "FeatureExtractor/MobilenetV3/expanded_conv_3/depthwise/hard_swish/mul_1/y", "shape": [], "dtype": "float32", "quantization": {"dtype": "uint8", "min": 0.1666666716337204, "scale": 1.0, "original_dtype": "float32"}}, {"name": "FeatureExtractor/MobilenetV3/expanded_conv_3/expand/hard_swish/mul_1/y", "shape": [], "dtype": "float32", "quantization": {"dtype": "uint8", "min": 0.1666666716337204, "scale": 1.0, "original_dtype": "float32"}}, {"name": "FeatureExtractor/MobilenetV3/expanded_conv/squeeze_excite/Conv_1/mul/y", "shape": [], "dtype": "float32", "quantization": {"dtype": "uint8", "min": 0.16666999459266663, "scale": 1.0, "original_dtype": "float32"}}, {"name": "FeatureExtractor/MobilenetV3/expanded_conv/squeeze_excite/Mean/reduction_indices", "shape": [2], "dtype": "int32"}, {"name": "FeatureExtractor/MobilenetV3/expanded_conv/squeeze_excite/Conv/weights", "shape": [1, 1, 16, 8], "dtype": "float32", "quantization": {"dtype": "uint8", "min": -0.5029408251537996, "scale": 0.004298639531229056, "original_dtype": "float32"}}, {"name": "FeatureExtractor/MobilenetV3/expanded_conv/squeeze_excite/Conv/biases", "shape": [8], "dtype": "float32", "quantization": {"dtype": "uint8", "min": -0.2927215688368853, "scale": 0.009147549026152666, "original_dtype": "float32"}}, {"name": "FeatureExtractor/MobilenetV3/expanded_conv/squeeze_excite/Conv_1/weights", "shape": [1, 1, 8, 16], "dtype": "float32", "quantization": {"dtype": "uint8", "min": -0.466711471711888, "scale": 0.002729306852116304, "original_dtype": "float32"}}, {"name": "FeatureExtractor/MobilenetV3/expanded_conv/squeeze_excite/Conv_1/biases", "shape": [16], "dtype": "float32", "quantization": {"dtype": "uint8", "min": -1.7729886419632854, "scale": 0.01886158129748176, "original_dtype": "float32"}}, {"name": "FeatureExtractor/MobilenetV3/expanded_conv/squeeze_excite/Conv_1/add/y", "shape": [], "dtype": "float32", "quantization": {"dtype": "uint8", "min": 3.0, "scale": 1.0, "original_dtype": "float32"}}, {"name": "FeatureExtractor/MobilenetV3/Conv/hard_swish/mul_1/y", "shape": [], "dtype": "float32", "quantization": {"dtype": "uint8", "min": 0.1666666716337204, "scale": 1.0, "original_dtype": "float32"}}, {"name": "Preprocessor/map/TensorArrayStack/range/start", "shape": [], "dtype": "int32"}, {"name": "Preprocessor/map/TensorArrayStack/range/delta", "shape": [], "dtype": "int32"}, {"name": "Preprocessor/map/TensorArrayUnstack/range/start", "shape": [], "dtype": "int32"}, {"name": "Preprocessor/map/TensorArrayUnstack/strided_slice/stack", "shape": [1], "dtype": "int32"}, {"name": "Preprocessor/map/TensorArrayUnstack/strided_slice/stack_1", "shape": [1], "dtype": "int32"}, {"name": "Preprocessor/map/TensorArrayUnstack/strided_slice/stack_2", "shape": [1], "dtype": "int32"}, {"name": "Preprocessor/map/TensorArrayUnstack/range/delta", "shape": [], "dtype": "int32"}, {"name": "Preprocessor/map/Const", "shape": [], "dtype": "int32"}, {"name": "Preprocessor/map/while/iteration_counter", "shape": [], "dtype": "int32"}, {"name": "Preprocessor/mul/x", "shape": [], "dtype": "float32", "quantization": {"dtype": "uint8", "min": 0.007843137718737125, "scale": 1.0, "original_dtype": "float32"}}, {"name": "Preprocessor/sub/y", "shape": [], "dtype": "float32", "quantization": {"dtype": "uint8", "min": 1.0, "scale": 1.0, "original_dtype": "float32"}}, {"name": "Preprocessor/map/strided_slice/stack", "shape": [1], "dtype": "int32"}, {"name": "Preprocessor/map/strided_slice/stack_1", "shape": [1], "dtype": "int32"}, {"name": "Preprocessor/map/strided_slice/stack_2", "shape": [1], "dtype": "int32"}, {"name": "FeatureExtractor/MobilenetV3/Conv/hard_swish/add/y", "shape": [], "dtype": "float32", "quantization": {"dtype": "uint8", "min": 3.0, "scale": 1.0, "original_dtype": "float32"}}, {"name": "FeatureExtractor/MobilenetV3/expanded_conv_3/expand/hard_swish/add/y", "shape": [], "dtype": "float32", "quantization": {"dtype": "uint8", "min": 3.0, "scale": 1.0, "original_dtype": "float32"}}, {"name": "FeatureExtractor/MobilenetV3/expanded_conv_3/depthwise/hard_swish/add/y", "shape": [], "dtype": "float32", "quantization": {"dtype": "uint8", "min": 3.0, "scale": 1.0, "original_dtype": "float32"}}, {"name": "FeatureExtractor/MobilenetV3/expanded_conv_6/expand/hard_swish/add/y", "shape": [], "dtype": "float32", "quantization": {"dtype": "uint8", "min": 3.0, "scale": 1.0, "original_dtype": "float32"}}, {"name": "FeatureExtractor/MobilenetV3/expanded_conv_6/depthwise/hard_swish/add/y", "shape": [], "dtype": "float32", "quantization": {"dtype": "uint8", "min": 3.0, "scale": 1.0, "original_dtype": "float32"}}, {"name": "FeatureExtractor/MobilenetV3/expanded_conv_8/expand/hard_swish/add/y", "shape": [], "dtype": "float32", "quantization": {"dtype": "uint8", "min": 3.0, "scale": 1.0, "original_dtype": "float32"}}, {"name": "FeatureExtractor/MobilenetV3/expanded_conv_8/depthwise/hard_swish/add/y", "shape": [], "dtype": "float32", "quantization": {"dtype": "uint8", "min": 3.0, "scale": 1.0, "original_dtype": "float32"}}, {"name": "FeatureExtractor/MobilenetV3/Conv_1/hard_swish/add/y", "shape": [], "dtype": "float32", "quantization": {"dtype": "uint8", "min": 3.0, "scale": 1.0, "original_dtype": "float32"}}, {"name": "BoxPredictor_5/strided_slice_1/stack", "shape": [1], "dtype": "int32"}, {"name": "BoxPredictor_5/strided_slice_1/stack_1", "shape": [1], "dtype": "int32"}, {"name": "BoxPredictor_5/strided_slice_1/stack_2", "shape": [1], "dtype": "int32"}, {"name": "BoxPredictor_5/Reshape_1/shape/1", "shape": [], "dtype": "int32"}, {"name": "BoxPredictor_5/Reshape_1/shape/2", "shape": [], "dtype": "int32"}, {"name": "concat_1/axis", "shape": [], "dtype": "int32"}, {"name": "Postprocessor/Slice/begin", "shape": [3], "dtype": "int32"}, {"name": "Postprocessor/Slice/size", "shape": [3], "dtype": "int32"}, {"name": "FeatureExtractor/MobilenetV3/Conv/Conv2D_weights", "shape": [3, 3, 3, 16], "dtype": "float32", "quantization": {"dtype": "uint8", "min": -18.50088726866479, "scale": 0.12937683404660694, "original_dtype": "float32"}}, {"name": "FeatureExtractor/MobilenetV3/Conv/Conv2D_bn_offset", "shape": [16], "dtype": "float32", "quantization": {"dtype": "uint8", "min": -2.4911543341243965, "scale": 0.04151923890207328, "original_dtype": "float32"}}, {"name": "FeatureExtractor/MobilenetV3/expanded_conv/depthwise/depthwise_weights", "shape": [3, 3, 16, 1], "dtype": "float32", "quantization": {"dtype": "uint8", "min": -3.571164164823644, "scale": 0.025878001194374233, "original_dtype": "float32"}}, {"name": "FeatureExtractor/MobilenetV3/expanded_conv/depthwise/depthwise_bn_offset", "shape": [16], "dtype": "float32", "quantization": {"dtype": "uint8", "min": -2.020188814051011, "scale": 0.03060892142501532, "original_dtype": "float32"}}, {"name": "FeatureExtractor/MobilenetV3/layer_13_2_Conv2d_5_3x3_s2_128_depthwise/depthwise_weights", "shape": [3, 3, 64, 1], "dtype": "float32", "quantization": {"dtype": "uint8", "min": -1.3420576076881559, "scale": 0.010567382737702014, "original_dtype": "float32"}}, {"name": "FeatureExtractor/MobilenetV3/layer_13_2_Conv2d_5_3x3_s2_128_depthwise/depthwise_bn_offset", "shape": [64], "dtype": "float32", "quantization": {"dtype": "uint8", "min": -4.281012025533938, "scale": 0.026263877457263423, "original_dtype": "float32"}}, {"name": "FeatureExtractor/MobilenetV3/expanded_conv/project/Conv2D_weights", "shape": [1, 1, 16, 16], "dtype": "float32", "quantization": {"dtype": "uint8", "min": -1.2074903974346085, "scale": 0.009288387672573912, "original_dtype": "float32"}}, {"name": "FeatureExtractor/MobilenetV3/expanded_conv/project/Conv2D_bn_offset", "shape": [16], "dtype": "float32", "quantization": {"dtype": "uint8", "min": -10.492101721670112, "scale": 0.07548274619906556, "original_dtype": "float32"}}, {"name": "FeatureExtractor/MobilenetV3/expanded_conv_1/expand/Conv2D_weights", "shape": [1, 1, 16, 72], "dtype": "float32", "quantization": {"dtype": "uint8", "min": -0.48402205764078626, "scale": 0.0038111973042581596, "original_dtype": "float32"}}, {"name": "FeatureExtractor/MobilenetV3/expanded_conv_1/expand/Conv2D_bn_offset", "shape": [72], "dtype": "float32", "quantization": {"dtype": "uint8", "min": -4.398405905330883, "scale": 0.03436254613539752, "original_dtype": "float32"}}, {"name": "FeatureExtractor/MobilenetV3/layer_13_2_Conv2d_5_3x3_s2_128/Conv2D_weights", "shape": [1, 1, 64, 128], "dtype": "float32", "quantization": {"dtype": "uint8", "min": -1.6990559381597181, "scale": 0.015445963074179257, "original_dtype": "float32"}}, {"name": "FeatureExtractor/MobilenetV3/expanded_conv_1/depthwise/depthwise_weights", "shape": [3, 3, 72, 1], "dtype": "float32", "quantization": {"dtype": "uint8", "min": -3.6544950260835534, "scale": 0.02629133112290326, "original_dtype": "float32"}}, {"name": "FeatureExtractor/MobilenetV3/expanded_conv_1/depthwise/depthwise_bn_offset", "shape": [72], "dtype": "float32", "quantization": {"dtype": "uint8", "min": -3.2118427865645462, "scale": 0.0563481190625359, "original_dtype": "float32"}}, {"name": "FeatureExtractor/MobilenetV3/expanded_conv_1/project/Conv2D_weights", "shape": [1, 1, 72, 24], "dtype": "float32", "quantization": {"dtype": "uint8", "min": -0.7803112450767966, "scale": 0.006612807161667768, "original_dtype": "float32"}}, {"name": "FeatureExtractor/MobilenetV3/expanded_conv_1/project/Conv2D_bn_offset", "shape": [24], "dtype": "float32", "quantization": {"dtype": "uint8", "min": -5.420023230010388, "scale": 0.04267734826779833, "original_dtype": "float32"}}, {"name": "FeatureExtractor/MobilenetV3/expanded_conv_2/expand/Conv2D_weights", "shape": [1, 1, 24, 88], "dtype": "float32", "quantization": {"dtype": "uint8", "min": -0.28887984215044504, "scale": 0.0023678675586102055, "original_dtype": "float32"}}, {"name": "FeatureExtractor/MobilenetV3/layer_13_2_Conv2d_5_3x3_s2_128/Conv2D_bn_offset", "shape": [128], "dtype": "float32", "quantization": {"dtype": "uint8", "min": -6.02759022432215, "scale": 0.0418582654466816, "original_dtype": "float32"}}, {"name": "FeatureExtractor/MobilenetV3/expanded_conv_2/expand/Conv2D_bn_offset", "shape": [88], "dtype": "float32", "quantization": {"dtype": "uint8", "min": -1.734556438408646, "scale": 0.025888902065800686, "original_dtype": "float32"}}, {"name": "FeatureExtractor/MobilenetV3/expanded_conv_2/depthwise/depthwise_weights", "shape": [3, 3, 88, 1], "dtype": "float32", "quantization": {"dtype": "uint8", "min": -4.385899450264724, "scale": 0.034534641340667124, "original_dtype": "float32"}}, {"name": "FeatureExtractor/MobilenetV3/expanded_conv_2/depthwise/depthwise_bn_offset", "shape": [88], "dtype": "float32", "quantization": {"dtype": "uint8", "min": -11.581205025841209, "scale": 0.0612762170679429, "original_dtype": "float32"}}, {"name": "FeatureExtractor/MobilenetV3/expanded_conv_2/project/Conv2D_weights", "shape": [1, 1, 88, 24], "dtype": "float32", "quantization": {"dtype": "uint8", "min": -0.9253872890098422, "scale": 0.006609909207213159, "original_dtype": "float32"}}, {"name": "FeatureExtractor/MobilenetV3/expanded_conv_2/project/Conv2D_bn_offset", "shape": [24], "dtype": "float32", "quantization": {"dtype": "uint8", "min": -2.946003854041006, "scale": 0.02017810858932196, "original_dtype": "float32"}}, {"name": "FeatureExtractor/MobilenetV3/expanded_conv_3/expand/Conv2D_weights", "shape": [1, 1, 24, 96], "dtype": "float32", "quantization": {"dtype": "uint8", "min": -0.5726963128529342, "scale": 0.004180265057320688, "original_dtype": "float32"}}, {"name": "FeatureExtractor/MobilenetV3/expanded_conv_3/expand/Conv2D_bn_offset", "shape": [96], "dtype": "float32", "quantization": {"dtype": "uint8", "min": -3.3367893462087594, "scale": 0.025667610355451995, "original_dtype": "float32"}}, {"name": "FeatureExtractor/MobilenetV3/expanded_conv_3/depthwise/depthwise_weights", "shape": [5, 5, 96, 1], "dtype": "float32", "quantization": {"dtype": "uint8", "min": -7.526129887150783, "scale": 0.06219942055496515, "original_dtype": "float32"}}, {"name": "FeatureExtractor/MobilenetV3/expanded_conv_3/depthwise/depthwise_bn_offset", "shape": [96], "dtype": "float32", "quantization": {"dtype": "uint8", "min": -4.7578864826875575, "scale": 0.08810900893865847, "original_dtype": "float32"}}, {"name": "FeatureExtractor/MobilenetV3/expanded_conv_3/project/Conv2D_weights", "shape": [1, 1, 96, 40], "dtype": "float32", "quantization": {"dtype": "uint8", "min": -1.546826232180876, "scale": 0.013220737027186973, "original_dtype": "float32"}}, {"name": "FeatureExtractor/MobilenetV3/expanded_conv_3/project/Conv2D_bn_offset", "shape": [40], "dtype": "float32", "quantization": {"dtype": "uint8", "min": -5.221199684517057, "scale": 0.03145301014769311, "original_dtype": "float32"}}, {"name": "FeatureExtractor/MobilenetV3/expanded_conv_4/expand/Conv2D_weights", "shape": [1, 1, 40, 240], "dtype": "float32", "quantization": {"dtype": "uint8", "min": -0.35527685810537896, "scale": 0.002519694029116163, "original_dtype": "float32"}}, {"name": "FeatureExtractor/MobilenetV3/expanded_conv_4/expand/Conv2D_bn_offset", "shape": [240], "dtype": "float32", "quantization": {"dtype": "uint8", "min": -1.344442185233621, "scale": 0.016598051669550876, "original_dtype": "float32"}}, {"name": "FeatureExtractor/MobilenetV3/expanded_conv_4/depthwise/depthwise_weights", "shape": [5, 5, 240, 1], "dtype": "float32", "quantization": {"dtype": "uint8", "min": -12.670085832184437, "scale": 0.07918803645115273, "original_dtype": "float32"}}, {"name": "FeatureExtractor/MobilenetV3/expanded_conv_4/depthwise/depthwise_bn_offset", "shape": [240], "dtype": "float32", "quantization": {"dtype": "uint8", "min": -3.858770014257992, "scale": 0.046491204991060145, "original_dtype": "float32"}}, {"name": "BoxPredictor_5/BoxEncodingPredictor_depthwise/depthwise_weights", "shape": [3, 3, 128, 1], "dtype": "float32", "quantization": {"dtype": "uint8", "min": -8.162696995454676, "scale": 0.041646413242115696, "original_dtype": "float32"}}, {"name": "BoxPredictor_5/BoxEncodingPredictor_depthwise/depthwise_bn_offset", "shape": [128], "dtype": "float32", "quantization": {"dtype": "uint8", "min": -1.3987188339233398, "scale": 0.015894532203674316, "original_dtype": "float32"}}, {"name": "FeatureExtractor/MobilenetV3/expanded_conv_4/project/Conv2D_weights", "shape": [1, 1, 240, 40], "dtype": "float32", "quantization": {"dtype": "uint8", "min": -1.8076305627822877, "scale": 0.015449833869934083, "original_dtype": "float32"}}, {"name": "FeatureExtractor/MobilenetV3/expanded_conv_4/project/Conv2D_bn_offset", "shape": [40], "dtype": "float32", "quantization": {"dtype": "uint8", "min": -1.0068624711504168, "scale": 0.010274106848473642, "original_dtype": "float32"}}, {"name": "FeatureExtractor/MobilenetV3/expanded_conv_5/expand/Conv2D_weights", "shape": [1, 1, 40, 240], "dtype": "float32", "quantization": {"dtype": "uint8", "min": -0.30446038339652265, "scale": 0.002378596745285333, "original_dtype": "float32"}}, {"name": "FeatureExtractor/MobilenetV3/expanded_conv_5/expand/Conv2D_bn_offset", "shape": [240], "dtype": "float32", "quantization": {"dtype": "uint8", "min": -3.8148290858549228, "scale": 0.024771617440616383, "original_dtype": "float32"}}, {"name": "FeatureExtractor/MobilenetV3/expanded_conv_5/depthwise/depthwise_weights", "shape": [5, 5, 240, 1], "dtype": "float32", "quantization": {"dtype": "uint8", "min": -3.273789851805743, "scale": 0.030034769282621495, "original_dtype": "float32"}}, {"name": "FeatureExtractor/MobilenetV3/expanded_conv_5/depthwise/depthwise_bn_offset", "shape": [240], "dtype": "float32", "quantization": {"dtype": "uint8", "min": -3.2725673327258984, "scale": 0.016445061973496978, "original_dtype": "float32"}}, {"name": "FeatureExtractor/MobilenetV3/expanded_conv_5/project/Conv2D_weights", "shape": [1, 1, 240, 40], "dtype": "float32", "quantization": {"dtype": "uint8", "min": -4.550284935446347, "scale": 0.03159920094059963, "original_dtype": "float32"}}, {"name": "FeatureExtractor/MobilenetV3/expanded_conv_5/project/Conv2D_bn_offset", "shape": [40], "dtype": "float32", "quantization": {"dtype": "uint8", "min": -2.5060589481802547, "scale": 0.04396594645930271, "original_dtype": "float32"}}, {"name": "FeatureExtractor/MobilenetV3/expanded_conv_6/expand/Conv2D_weights", "shape": [1, 1, 40, 120], "dtype": "float32", "quantization": {"dtype": "uint8", "min": -0.5386843372793759, "scale": 0.0036397590356714586, "original_dtype": "float32"}}, {"name": "FeatureExtractor/MobilenetV3/expanded_conv_6/expand/Conv2D_bn_offset", "shape": [120], "dtype": "float32", "quantization": {"dtype": "uint8", "min": -4.332578771254595, "scale": 0.02707861732034122, "original_dtype": "float32"}}, {"name": "FeatureExtractor/MobilenetV3/expanded_conv_6/depthwise/depthwise_weights", "shape": [5, 5, 120, 1], "dtype": "float32", "quantization": {"dtype": "uint8", "min": -4.408329518636068, "scale": 0.03800284067789714, "original_dtype": "float32"}}, {"name": "FeatureExtractor/MobilenetV3/expanded_conv_6/depthwise/depthwise_bn_offset", "shape": [120], "dtype": "float32", "quantization": {"dtype": "uint8", "min": -3.6897851298837097, "scale": 0.04791928740108714, "original_dtype": "float32"}}, {"name": "FeatureExtractor/MobilenetV3/expanded_conv_6/project/Conv2D_weights", "shape": [1, 1, 120, 48], "dtype": "float32", "quantization": {"dtype": "uint8", "min": -1.380562943570754, "scale": 0.013148218510197658, "original_dtype": "float32"}}, {"name": "FeatureExtractor/MobilenetV3/expanded_conv_6/project/Conv2D_bn_offset", "shape": [48], "dtype": "float32", "quantization": {"dtype": "uint8", "min": -1.2762118203967225, "scale": 0.01020969456317378, "original_dtype": "float32"}}, {"name": "FeatureExtractor/MobilenetV3/expanded_conv_7/expand/Conv2D_weights", "shape": [1, 1, 48, 144], "dtype": "float32", "quantization": {"dtype": "uint8", "min": -0.3381999341880574, "scale": 0.0031027516897986916, "original_dtype": "float32"}}, {"name": "FeatureExtractor/MobilenetV3/expanded_conv_7/expand/Conv2D_bn_offset", "shape": [144], "dtype": "float32", "quantization": {"dtype": "uint8", "min": -2.9619650223675897, "scale": 0.021309100880342373, "original_dtype": "float32"}}, {"name": "FeatureExtractor/MobilenetV3/expanded_conv_7/depthwise/depthwise_weights", "shape": [5, 5, 144, 1], "dtype": "float32", "quantization": {"dtype": "uint8", "min": -3.59486634497549, "scale": 0.028084893320121016, "original_dtype": "float32"}}, {"name": "FeatureExtractor/MobilenetV3/expanded_conv_7/depthwise/depthwise_bn_offset", "shape": [144], "dtype": "float32", "quantization": {"dtype": "uint8", "min": -6.448997869211085, "scale": 0.03307178394467223, "original_dtype": "float32"}}, {"name": "FeatureExtractor/MobilenetV3/expanded_conv_7/project/Conv2D_weights", "shape": [1, 1, 144, 48], "dtype": "float32", "quantization": {"dtype": "uint8", "min": -2.936688189413033, "scale": 0.0266971653583003, "original_dtype": "float32"}}, {"name": "FeatureExtractor/MobilenetV3/expanded_conv_7/project/Conv2D_bn_offset", "shape": [48], "dtype": "float32", "quantization": {"dtype": "uint8", "min": -1.8409715315874886, "scale": 0.012784524524913115, "original_dtype": "float32"}}, {"name": "FeatureExtractor/MobilenetV3/expanded_conv_8/expand/Conv2D_weights", "shape": [1, 1, 48, 288], "dtype": "float32", "quantization": {"dtype": "uint8", "min": -0.3447629207489537, "scale": 0.00299793844129525, "original_dtype": "float32"}}, {"name": "FeatureExtractor/MobilenetV3/expanded_conv_8/expand/Conv2D_bn_offset", "shape": [288], "dtype": "float32", "quantization": {"dtype": "uint8", "min": -3.8631054728638894, "scale": 0.02399444393083161, "original_dtype": "float32"}}, {"name": "BoxPredictor_0/BoxEncodingPredictor_depthwise/depthwise_weights", "shape": [3, 3, 288, 1], "dtype": "float32", "quantization": {"dtype": "uint8", "min": -0.8037147666893754, "scale": 0.03091210641112982, "original_dtype": "float32"}}, {"name": "BoxPredictor_0/BoxEncodingPredictor_depthwise/depthwise_bn_offset", "shape": [288], "dtype": "float32", "quantization": {"dtype": "uint8", "min": -1.396223643246819, "scale": 0.06648684015461043, "original_dtype": "float32"}}, {"name": "BoxPredictor_0/ClassPredictor_depthwise/depthwise_weights", "shape": [3, 3, 288, 1], "dtype": "float32", "quantization": {"dtype": "uint8", "min": -1.47125843926972, "scale": 0.009743433372647154, "original_dtype": "float32"}}, {"name": "BoxPredictor_0/ClassPredictor_depthwise/depthwise_bn_offset", "shape": [288], "dtype": "float32", "quantization": {"dtype": "uint8", "min": -0.8687086467649422, "scale": 0.016390729184244193, "original_dtype": "float32"}}, {"name": "FeatureExtractor/MobilenetV3/expanded_conv_8/depthwise/depthwise_weights", "shape": [5, 5, 288, 1], "dtype": "float32", "quantization": {"dtype": "uint8", "min": -2.6285057554058002, "scale": 0.02709799747841031, "original_dtype": "float32"}}, {"name": "FeatureExtractor/MobilenetV3/expanded_conv_8/depthwise/depthwise_bn_offset", "shape": [288], "dtype": "float32", "quantization": {"dtype": "uint8", "min": -3.966053134319829, "scale": 0.03250863224852319, "original_dtype": "float32"}}, {"name": "FeatureExtractor/MobilenetV3/expanded_conv_8/project/Conv2D_weights", "shape": [1, 1, 288, 48], "dtype": "float32", "quantization": {"dtype": "uint8", "min": -0.800743372300092, "scale": 0.0062558075960944684, "original_dtype": "float32"}}, {"name": "FeatureExtractor/MobilenetV3/expanded_conv_8/project/Conv2D_bn_offset", "shape": [48], "dtype": "float32", "quantization": {"dtype": "uint8", "min": -0.6196670602349674, "scale": 0.004766669694115134, "original_dtype": "float32"}}, {"name": "FeatureExtractor/MobilenetV3/expanded_conv_9/expand/Conv2D_weights", "shape": [1, 1, 48, 288], "dtype": "float32", "quantization": {"dtype": "uint8", "min": -0.6700453856412103, "scale": 0.005317820520961986, "original_dtype": "float32"}}, {"name": "FeatureExtractor/MobilenetV3/expanded_conv_9/expand/Conv2D_bn_offset", "shape": [288], "dtype": "float32", "quantization": {"dtype": "uint8", "min": -1.368586940391391, "scale": 0.015552124322629443, "original_dtype": "float32"}}, {"name": "FeatureExtractor/MobilenetV3/expanded_conv_9/depthwise/depthwise_weights", "shape": [5, 5, 288, 1], "dtype": "float32", "quantization": {"dtype": "uint8", "min": -3.9699217478434248, "scale": 0.03336068695666743, "original_dtype": "float32"}}, {"name": "FeatureExtractor/MobilenetV3/expanded_conv_9/depthwise/depthwise_bn_offset", "shape": [288], "dtype": "float32", "quantization": {"dtype": "uint8", "min": -4.584003513934565, "scale": 0.04825266856773227, "original_dtype": "float32"}}, {"name": "FeatureExtractor/MobilenetV3/expanded_conv_9/project/Conv2D_weights", "shape": [1, 1, 288, 48], "dtype": "float32", "quantization": {"dtype": "uint8", "min": -1.4416175141054042, "scale": 0.010758339657503016, "original_dtype": "float32"}}, {"name": "FeatureExtractor/MobilenetV3/expanded_conv_9/project/Conv2D_bn_offset", "shape": [48], "dtype": "float32", "quantization": {"dtype": "uint8", "min": -1.1426335863038606, "scale": 0.007419698612362731, "original_dtype": "float32"}}, {"name": "FeatureExtractor/MobilenetV3/expanded_conv_10/expand/Conv2D_weights", "shape": [1, 1, 48, 288], "dtype": "float32", "quantization": {"dtype": "uint8", "min": -0.4735409563662959, "scale": 0.004013058952256745, "original_dtype": "float32"}}, {"name": "FeatureExtractor/MobilenetV3/expanded_conv_10/expand/Conv2D_bn_offset", "shape": [288], "dtype": "float32", "quantization": {"dtype": "uint8", "min": -2.277024170931648, "scale": 0.01603538148543414, "original_dtype": "float32"}}, {"name": "FeatureExtractor/MobilenetV3/expanded_conv_10/depthwise/depthwise_weights", "shape": [5, 5, 288, 1], "dtype": "float32", "quantization": {"dtype": "uint8", "min": -3.8340196235507142, "scale": 0.0294924586426978, "original_dtype": "float32"}}, {"name": "FeatureExtractor/MobilenetV3/expanded_conv_10/depthwise/depthwise_bn_offset", "shape": [288], "dtype": "float32", "quantization": {"dtype": "uint8", "min": -2.8231521587745814, "scale": 0.029717391144995595, "original_dtype": "float32"}}, {"name": "FeatureExtractor/MobilenetV3/expanded_conv_10/project/Conv2D_weights", "shape": [1, 1, 288, 48], "dtype": "float32", "quantization": {"dtype": "uint8", "min": -2.1223035419688507, "scale": 0.019119851729449105, "original_dtype": "float32"}}, {"name": "FeatureExtractor/MobilenetV3/expanded_conv_10/project/Conv2D_bn_offset", "shape": [48], "dtype": "float32", "quantization": {"dtype": "uint8", "min": -1.5392945654251997, "scale": 0.013044869198518641, "original_dtype": "float32"}}, {"name": "FeatureExtractor/MobilenetV3/Conv_1/Conv2D_weights", "shape": [1, 1, 48, 288], "dtype": "float32", "quantization": {"dtype": "uint8", "min": -0.262947312523337, "scale": 0.001992025094873765, "original_dtype": "float32"}}, {"name": "FeatureExtractor/MobilenetV3/Conv_1/Conv2D_bn_offset", "shape": [288], "dtype": "float32", "quantization": {"dtype": "uint8", "min": -2.5043034693774056, "scale": 0.017036078022975548, "original_dtype": "float32"}}, {"name": "BoxPredictor_1/BoxEncodingPredictor_depthwise/depthwise_weights", "shape": [3, 3, 288, 1], "dtype": "float32", "quantization": {"dtype": "uint8", "min": -7.411564447365555, "scale": 0.04385541093115713, "original_dtype": "float32"}}, {"name": "BoxPredictor_1/BoxEncodingPredictor_depthwise/depthwise_bn_offset", "shape": [288], "dtype": "float32", "quantization": {"dtype": "uint8", "min": -1.9427995317122515, "scale": 0.04625713170743456, "original_dtype": "float32"}}, {"name": "BoxPredictor_1/ClassPredictor_depthwise/depthwise_weights", "shape": [3, 3, 288, 1], "dtype": "float32", "quantization": {"dtype": "uint8", "min": -3.081323973337809, "scale": 0.020406119028727212, "original_dtype": "float32"}}, {"name": "BoxPredictor_1/ClassPredictor_depthwise/depthwise_bn_offset", "shape": [288], "dtype": "float32", "quantization": {"dtype": "uint8", "min": -2.870125554589664, "scale": 0.031539841259227076, "original_dtype": "float32"}}, {"name": "FeatureExtractor/MobilenetV3/layer_13_1_Conv2d_2_1x1_256/Conv2D_weights", "shape": [1, 1, 288, 256], "dtype": "float32", "quantization": {"dtype": "uint8", "min": -0.22220172882080078, "scale": 0.0023146013418833414, "original_dtype": "float32"}}, {"name": "FeatureExtractor/MobilenetV3/layer_13_1_Conv2d_2_1x1_256/Conv2D_bn_offset", "shape": [256], "dtype": "float32", "quantization": {"dtype": "uint8", "min": -1.337999725341797, "scale": 0.010535430908203126, "original_dtype": "float32"}}, {"name": "FeatureExtractor/MobilenetV3/layer_13_2_Conv2d_2_3x3_s2_512_depthwise/depthwise_weights", "shape": [3, 3, 256, 1], "dtype": "float32", "quantization": {"dtype": "uint8", "min": -2.2031298039006253, "scale": 0.021813166375253715, "original_dtype": "float32"}}, {"name": "FeatureExtractor/MobilenetV3/layer_13_2_Conv2d_2_3x3_s2_512_depthwise/depthwise_bn_offset", "shape": [256], "dtype": "float32", "quantization": {"dtype": "uint8", "min": -1.258785514270558, "scale": 0.016783806856940774, "original_dtype": "float32"}}, {"name": "FeatureExtractor/MobilenetV3/layer_13_2_Conv2d_2_3x3_s2_512/Conv2D_weights", "shape": [1, 1, 256, 512], "dtype": "float32", "quantization": {"dtype": "uint8", "min": -0.458556427675135, "scale": 0.0038213035639594584, "original_dtype": "float32"}}, {"name": "FeatureExtractor/MobilenetV3/layer_13_2_Conv2d_2_3x3_s2_512/Conv2D_bn_offset", "shape": [512], "dtype": "float32", "quantization": {"dtype": "uint8", "min": -2.3879500809837793, "scale": 0.02364307010875029, "original_dtype": "float32"}}, {"name": "BoxPredictor_2/BoxEncodingPredictor_depthwise/depthwise_weights", "shape": [3, 3, 512, 1], "dtype": "float32", "quantization": {"dtype": "uint8", "min": -5.3232296214384185, "scale": 0.03327018513399012, "original_dtype": "float32"}}, {"name": "BoxPredictor_2/BoxEncodingPredictor_depthwise/depthwise_bn_offset", "shape": [512], "dtype": "float32", "quantization": {"dtype": "uint8", "min": -0.9893608815529769, "scale": 0.01735720844829784, "original_dtype": "float32"}}, {"name": "BoxPredictor_2/ClassPredictor_depthwise/depthwise_weights", "shape": [3, 3, 512, 1], "dtype": "float32", "quantization": {"dtype": "uint8", "min": -2.825293675590964, "scale": 0.019896434335147633, "original_dtype": "float32"}}, {"name": "BoxPredictor_2/ClassPredictor_depthwise/depthwise_bn_offset", "shape": [512], "dtype": "float32", "quantization": {"dtype": "uint8", "min": -3.9401909323299638, "scale": 0.04104365554510379, "original_dtype": "float32"}}, {"name": "FeatureExtractor/MobilenetV3/layer_13_1_Conv2d_3_1x1_128/Conv2D_weights", "shape": [1, 1, 512, 128], "dtype": "float32", "quantization": {"dtype": "uint8", "min": -0.12037650510376574, "scale": 0.0011574663952285168, "original_dtype": "float32"}}, {"name": "FeatureExtractor/MobilenetV3/layer_13_1_Conv2d_3_1x1_128/Conv2D_bn_offset", "shape": [128], "dtype": "float32", "quantization": {"dtype": "uint8", "min": -1.0938935560338638, "scale": 0.010518207269556382, "original_dtype": "float32"}}, {"name": "FeatureExtractor/MobilenetV3/layer_13_2_Conv2d_3_3x3_s2_256_depthwise/depthwise_weights", "shape": [3, 3, 128, 1], "dtype": "float32", "quantization": {"dtype": "uint8", "min": -1.9558825773351332, "scale": 0.024448532216689165, "original_dtype": "float32"}}, {"name": "FeatureExtractor/MobilenetV3/layer_13_2_Conv2d_3_3x3_s2_256_depthwise/depthwise_bn_offset", "shape": [128], "dtype": "float32", "quantization": {"dtype": "uint8", "min": -1.482124777401195, "scale": 0.02470207962335325, "original_dtype": "float32"}}, {"name": "FeatureExtractor/MobilenetV3/layer_13_2_Conv2d_3_3x3_s2_256/Conv2D_weights", "shape": [1, 1, 128, 256], "dtype": "float32", "quantization": {"dtype": "uint8", "min": -0.5116379886281257, "scale": 0.0039056335009780585, "original_dtype": "float32"}}, {"name": "FeatureExtractor/MobilenetV3/layer_13_2_Conv2d_3_3x3_s2_256/Conv2D_bn_offset", "shape": [256], "dtype": "float32", "quantization": {"dtype": "uint8", "min": -3.3928445180257163, "scale": 0.024947386161953796, "original_dtype": "float32"}}, {"name": "BoxPredictor_3/BoxEncodingPredictor_depthwise/depthwise_weights", "shape": [3, 3, 256, 1], "dtype": "float32", "quantization": {"dtype": "uint8", "min": -2.784102243535659, "scale": 0.029618108973783606, "original_dtype": "float32"}}, {"name": "BoxPredictor_3/BoxEncodingPredictor_depthwise/depthwise_bn_offset", "shape": [256], "dtype": "float32", "quantization": {"dtype": "uint8", "min": -1.7558835310094496, "scale": 0.01908569055445054, "original_dtype": "float32"}}, {"name": "BoxPredictor_3/ClassPredictor_depthwise/depthwise_weights", "shape": [3, 3, 256, 1], "dtype": "float32", "quantization": {"dtype": "uint8", "min": -2.7552140263950124, "scale": 0.02482174798554065, "original_dtype": "float32"}}, {"name": "BoxPredictor_3/ClassPredictor_depthwise/depthwise_bn_offset", "shape": [256], "dtype": "float32", "quantization": {"dtype": "uint8", "min": -2.3843222375009576, "scale": 0.02292617536058613, "original_dtype": "float32"}}, {"name": "FeatureExtractor/MobilenetV3/layer_13_1_Conv2d_4_1x1_128/Conv2D_weights", "shape": [1, 1, 256, 128], "dtype": "float32", "quantization": {"dtype": "uint8", "min": -0.23120590483441072, "scale": 0.0017254172002567965, "original_dtype": "float32"}}, {"name": "FeatureExtractor/MobilenetV3/layer_13_1_Conv2d_4_1x1_128/Conv2D_bn_offset", "shape": [128], "dtype": "float32", "quantization": {"dtype": "uint8", "min": -1.5565398959552539, "scale": 0.011703307488385368, "original_dtype": "float32"}}, {"name": "BoxPredictor_5/ClassPredictor_depthwise/depthwise_weights", "shape": [3, 3, 128, 1], "dtype": "float32", "quantization": {"dtype": "uint8", "min": -9.990936554179472, "scale": 0.05286209817026176, "original_dtype": "float32"}}, {"name": "FeatureExtractor/MobilenetV3/layer_13_2_Conv2d_4_3x3_s2_256_depthwise/depthwise_weights", "shape": [3, 3, 128, 1], "dtype": "float32", "quantization": {"dtype": "uint8", "min": -1.752530807607314, "scale": 0.01637879259446088, "original_dtype": "float32"}}, {"name": "FeatureExtractor/MobilenetV3/layer_13_2_Conv2d_4_3x3_s2_256_depthwise/depthwise_bn_offset", "shape": [128], "dtype": "float32", "quantization": {"dtype": "uint8", "min": -1.7357358689401663, "scale": 0.014963240249484193, "original_dtype": "float32"}}, {"name": "FeatureExtractor/MobilenetV3/layer_13_2_Conv2d_4_3x3_s2_256/Conv2D_weights", "shape": [1, 1, 128, 256], "dtype": "float32", "quantization": {"dtype": "uint8", "min": -0.49989052379832544, "scale": 0.0041657543649860455, "original_dtype": "float32"}}, {"name": "FeatureExtractor/MobilenetV3/layer_13_2_Conv2d_4_3x3_s2_256/Conv2D_bn_offset", "shape": [256], "dtype": "float32", "quantization": {"dtype": "uint8", "min": -2.3530367542715633, "scale": 0.018824294034172507, "original_dtype": "float32"}}, {"name": "BoxPredictor_5/ClassPredictor_depthwise/depthwise_bn_offset", "shape": [128], "dtype": "float32", "quantization": {"dtype": "uint8", "min": -4.156622433194927, "scale": 0.022468229368621227, "original_dtype": "float32"}}, {"name": "BoxPredictor_4/BoxEncodingPredictor_depthwise/depthwise_weights", "shape": [3, 3, 256, 1], "dtype": "float32", "quantization": {"dtype": "uint8", "min": -1.6492222996319041, "scale": 0.016328933659721823, "original_dtype": "float32"}}, {"name": "BoxPredictor_4/BoxEncodingPredictor_depthwise/depthwise_bn_offset", "shape": [256], "dtype": "float32", "quantization": {"dtype": "uint8", "min": -1.4415707293678732, "scale": 0.0165697784984813, "original_dtype": "float32"}}, {"name": "BoxPredictor_4/ClassPredictor_depthwise/depthwise_weights", "shape": [3, 3, 256, 1], "dtype": "float32", "quantization": {"dtype": "uint8", "min": -3.1026392731012082, "scale": 0.02216170909358006, "original_dtype": "float32"}}, {"name": "BoxPredictor_4/ClassPredictor_depthwise/depthwise_bn_offset", "shape": [256], "dtype": "float32", "quantization": {"dtype": "uint8", "min": -1.0820570258533253, "scale": 0.013696924377890194, "original_dtype": "float32"}}, {"name": "FeatureExtractor/MobilenetV3/layer_13_1_Conv2d_5_1x1_64/Conv2D_weights", "shape": [1, 1, 256, 64], "dtype": "float32", "quantization": {"dtype": "uint8", "min": -0.17777918740814808, "scale": 0.0015873141732870365, "original_dtype": "float32"}}, {"name": "FeatureExtractor/MobilenetV3/layer_13_1_Conv2d_5_1x1_64/Conv2D_bn_offset", "shape": [64], "dtype": "float32", "quantization": {"dtype": "uint8", "min": -0.8485739090863397, "scale": 0.010607173863579246, "original_dtype": "float32"}}, {"name": "Preprocessor/map/while/ResizeImage/resize/ExpandDims/dim", "shape": [], "dtype": "int32"}, {"name": "Preprocessor/map/while/ResizeImage/stack", "shape": [2], "dtype": "int32"}, {"name": "Preprocessor/map/while/add/y", "shape": [], "dtype": "int32"}, {"name": "Preprocessor/map/while/add_1/y", "shape": [], "dtype": "int32"}]}]}